DE_wind_model.pth (torch, 250791 bytes, 16 tensors)

conv1.weight f4 [64, 6, 3]
0	0xbe4b8dd4	-0.19878322
1	0x3e00dce4	0.12584263
2	0x3d6dafd6	0.05802902
3	0xbd15c318	-0.03656301
4	0xbcab1b41	-0.02088702
5	0xbe638708	-0.22219479
6	0x3d245cd5	0.040127594
7	0x3dfb2f24	0.12264851
8	0xbe1c5567	-0.15266953
9	0xbde82979	-0.11336035
10	0x3f1bbb98	0.6083312
11	0x3d1c4765	0.038154025
12	0xbe55a80f	-0.2086489
13	0x3f797430	0.97442913
14	0x3e366321	0.17811252
15	0xbdf7c318	-0.12097758
16	0xbd5d3026	-0.054000996
17	0x3dc8bd1a	0.09801693
18	0x3b9d9161	0.0048085903
19	0x3cdbed2f	0.026846496
20	0x3e3a8814	0.18215972
21	0xbd894085	-0.06701759
22	0x3f9fb1b3	1.2476104
23	0x3e5fed84	0.21867949
24	0xbe6a3392	-0.22871235
25	0x3e7f54a4	0.24934632
26	0x3e0b3c9b	0.13597338
27	0x3e57b3ef	0.21064733
28	0xbdaec394	-0.08533397
29	0x3e230c7c	0.15922731
30	0xbe3415c7	-0.17586432
31	0xbea11b7c	-0.3146628
32	0xbdc68937	-0.096941404
33	0xbd7f7664	-0.062368765
34	0x3deeb61b	0.116558276
35	0x3da926ad	0.0825933
36	0x3c2e9eb4	0.010657955
37	0x3e1821f0	0.14856696
38	0x3d0750c7	0.03303602
39	0xbdf338b3	-0.11876049
40	0x3f028c20	0.50995064
41	0x3dc88eac	0.097928375
42	0xbe4b3f4c	-0.19848365
43	0x3f054c8f	0.52069944
44	0x3e02b714	0.12765151
45	0xbe4d7a6b	-0.2006623
46	0x3deb545d	0.114907004
47	0x3db2f052	0.08737244
48	0x3e45e4a8	0.19325507
49	0x3f17c82c	0.59289813
50	0x3dce331d	0.10068343
51	0xbe550c84	-0.20805556
52	0x3eaf7e1e	0.34275907
53	0x3e611867	0.21981965
54	0x3e6e73f4	0.2328642
55	0x3e372630	0.17885661
56	0xbe39d2fa	-0.18146887
57	0x3da645cf	0.08118784
58	0xbeff320f	-0.4984288
59	0x3d48ff47	0.049071576
60	0xbd12479c	-0.035712823
61	0xbf04cbff	-0.51873773
62	0xbe48d47d	-0.19612308
63	0x3c8b7486	0.017023336
64	0x3edbd32c	0.4293455
65	0xbdd8557d	-0.105631806
66	0xbe64e764	-0.22353894
67	0xbe5ab504	-0.21358114
68	0x3dae5230	0.0851177
69	0xbd37d9cb	-0.044885438
70	0xbf309284	-0.68973565
71	0xbcc60750	-0.024173409
72	0xbdb4ddde	-0.0883138
73	0x3f3403c5	0.7031825
74	0xbdce8445	-0.10083822
75	0xbde32b30	-0.11092222
76	0x3ea8fb52	0.33004242
77	0xbe1d29a6	-0.15347919
78	0xbd1d5bd1	-0.03841764
79	0x3d74a39c	0.059726343
80	0x3e5cde36	0.21569142
81	0x3cd000f9	0.025391089
82	0x3d694746	0.056952737
83	0xbd85fa42	-0.065418735
84	0x3dea46b5	0.114392675
85	0x3ebc7eec	0.36815584
86	0x3c2edab0	0.010672256
87	0xbe421797	-0.18954311
88	0xbf449cf0	-0.7680197
89	0x3ca7732c	0.02044066
90	0xbe4f8d0d	-0.2026865
91	0x3ec6c89f	0.38824937
92	0x3c9e04ee	0.01928946
93	0x3ccb967c	0.02485203
94	0x3f13d949	0.57753426
95	0x3dacb70c	0.08433351
96	0x3df5d7a0	0.12004018
97	0xbd5b8f03	-0.053603183
98	0xbe56a83d	-0.20962615
99	0x3df9d3f4	0.1219863
100	0xbf2a4772	-0.66515267
101	0x3e62dceb	0.22154586
102	0xbe06cb8e	-0.13163587
103	0x3ef028b0	0.46906042
104	0x3c023303	0.007946732
105	0x3bef8798	0.007309865
106	0xbe07bf36	-0.13256535
107	0xbe27549a	-0.16340867
108	0xbe0c49cd	-0.13700028
109	0xbe51981c	-0.20468181
110	0x3dae7c1d	0.085197665
111	0x3df2b1fb	0.11850353
112	0x3eca979a	0.39568788
113	0xbe5eb1a9	-0.2174746
114	0xbd6894a1	-0.05678237
115	0x3ed2b475	0.41153303
116	0xbe0e1c23	-0.13877921
117	0xbe2bb00b	-0.16766374
118	0x3edb1ab9	0.42793825
119	0x3dcca4d6	0.099923775
120	0xbdd4c60e	-0.103893384
121	0xbe970904	-0.29499066
122	0xbe58797a	-0.2114009
123	0x3ccd3a72	0.025052283
124	0x3f2bac72	0.67060006
125	0xbe42bafc	-0.19016641
126	0x3cb9695e	0.02263325
127	0x3f2b7ea6	0.66990125
128	0x3e370133	0.17871551
129	0x3e16b86a	0.14718786
130	0x3e92d3eb	0.28677306
131	0xbdd29bc2	-0.10283615
132	0x3d5df50a	0.054188766
133	0x3ea087a2	0.3135348
134	0xbdf3ee8f	-0.11910736
135	0x3e224af7	0.1584891
136	0xbe53ff09	-0.20702757
137	0xbe6e3f6e	-0.23266384
138	0xbe3d33c9	-0.18476786
139	0xbf046a87	-0.5172505
140	0xbe6029d9	-0.21890964
141	0x3e51645a	0.20448437
142	0xbead1317	-0.33803627
143	0xbd1532e0	-0.03642547
144	0x3e5bc681	0.21462442
145	0xbb8d3db5	-0.0043103346
146	0x3e2a9948	0.16660035
147	0xbe50c3cb	-0.20387189
148	0xbe852fd5	-0.26013055
149	0xbe01a478	-0.12660396
150	0x3e01a4ab	0.12660472
151	0x3e35cd1e	0.17754027
152	0x3e51f147	0.20502196
153	0xbe63e90f	-0.22256874
154	0xbe0807cd	-0.13284226
155	0x3d505a99	0.05086765
156	0x3de0dc41	0.1097951
157	0x3eecbd25	0.46238056
158	0xbdb77ae5	-0.08958987
159	0x3e470848	0.19436753
160	0xbf9f4142	-1.244179
161	0x3e3623a3	0.17787032
162	0xbe6aa6a7	-0.22915135
163	0x3f679b0a	0.90470946
164	0x3e6c9d49	0.23106875
165	0xbe35de3f	-0.17760561
166	0x3ec3523b	0.38148674
167	0x3d776a3c	0.060404047
168	0xb9c5ea8f	-0.00037749528
169	0xbe6ca087	-0.23108111
170	0x3dbca3d8	0.09210938
171	0x3e6a3447	0.22871505
172	0x3e36a053	0.17834596
173	0x3e68c2c7	0.22730552
174	0x3db1c1ea	0.08679564
175	0x3ec59934	0.38593447
176	0xbd36bc4d	-0.04461317
177	0x3dcaa0c0	0.09893942
178	0xbe22bcc1	-0.15892316
179	0x3d052deb	0.032514494
180	0xbd38b3a4	-0.045093194
181	0x3fc4551d	1.5338475
182	0x3e122552	0.14272049
183	0x3e0f710b	0.14007966
184	0x3d51b3a9	0.051196728
185	0xbd6330c5	-0.055466432
186	0xbe0a00b6	-0.13476834
187	0x3e1f4634	0.15554124
188	0x3e3864ee	0.18007252
189	0xbe17b055	-0.14813359
190	0x3e771af2	0.24131373
191	0xbe37a629	-0.17934479
192	0xbe688e73	-0.2271059
193	0x3ecac6eb	0.39604887
194	0x3e3dbf54	0.18530017
195	0x3da258d2	0.079270974
196	0xbe2b5606	-0.16732034
197	0xbc23b1fa	-0.009991163
198	0xbe3f8eff	-0.18706892
199	0xbe12fd01	-0.14354326
200	0xbe6a0632	-0.22853926
201	0x3dd21c28	0.10259277
202	0xbed6fc52	-0.4198938
203	0xbe55e650	-0.20888638
204	0x3e2f9b45	0.17149074
205	0xbdcb448d	-0.099251844
206	0x3c6126de	0.013742177
207	0xbe6189c2	-0.22025207
208	0xbfb5481a	-1.4162629
209	0xbc44e146	-0.0120166
210	0xbe497c7c	-0.19676393
211	0xbe928856	-0.2861964
212	0xbdb328d1	-0.087480195
213	0xbe0587c2	-0.13040069
214	0xbdffbb82	-0.12486936
215	0xbdc741af	-0.09729325
216	0xbe21bd69	-0.1579491
217	0xbda1c941	-0.07899714
218	0x3d5d9c72	0.054104276
219	0x3d9d2199	0.07672424
220	0x3e5051a6	0.20343646
221	0xbe475446	-0.19465742
222	0x3e50fcb0	0.20408893
223	0x3f03d43d	0.51495725
224	0xbd46e7e9	-0.04856101
225	0x3db8ec08	0.090293944
226	0xbf552776	-0.8326334
227	0x3e2065f5	0.15663894
228	0xbd67399e	-0.056451432
229	0xbe024fc5	-0.12725742
230	0xbe41ec99	-0.18937911
231	0xbe1f63d1	-0.1556542
232	0xbe5f100c	-0.21783465
233	0x3ddb2879	0.10701079
234	0xbdf4bc67	-0.119499974
235	0x3ef468cb	0.477362
236	0x3dec95ef	0.11552035
237	0xbe6b7575	-0.22994025
238	0x3ed5d72d	0.4176573
239	0x3d65b73e	0.056082956
240	0x3db89672	0.0901307
241	0xbf328c49	-0.6974531
242	0x3c6e3e51	0.014541225
243	0x3e00bb7a	0.12571517
244	0xbd8d5c07	-0.069023184
245	0x3e26333a	0.16230479
246	0xbe329d1b	-0.17442743
247	0xbddf3f5b	-0.10900756
248	0x3e611381	0.21980096
249	0xbdd0662d	-0.101757385
250	0x3ede4996	0.43415517
251	0x3d7c5b31	0.061610404
252	0xbe14b0ff	-0.14520644
253	0x3ef99099	0.48743132
254	0x3deda3be	0.11603497
255	0xbd888746	-0.06666426

conv1.bias f4 [64]
0	0x3cdc81cf	0.026917366
1	0x3e2742b0	0.16334033
2	0x3e965f49	0.29369572
3	0xbe213784	-0.15743834
4	0xbec8c0f0	-0.392097
5	0xbf02ab58	-0.510427
6	0xbd86ff9e	-0.06591724
7	0xbddc405f	-0.10754465
8	0x3d528b43	0.05140234
9	0x3d60ed06	0.054913543
10	0xbd051faa	-0.0325009
11	0xbe3b2afb	-0.18278114
12	0x3deaeb74	0.1147069
13	0x3e098dff	0.13433073
14	0xbe2792f3	-0.1636465
15	0x3e13c738	0.14431465
16	0xbd2f0ffc	-0.042739853
17	0x3e3642f7	0.17798983
18	0x3e932cba	0.2874506
19	0x3e3b675d	0.18301149
20	0xbe9b913b	-0.3038424
21	0x3e71dd8e	0.23619673
22	0x3e375b23	0.1790586
23	0xbc903066	-0.017601203
24	0x3e36ad35	0.1783951
25	0x3bfa2335	0.0076335915
26	0xbe1aedaf	-0.15129732
27	0x3c4fa4be	0.012673555
28	0x3d4a2be5	0.049358267
29	0xbe9b3558	-0.30314136
30	0x3e64842f	0.22316049
31	0x3e6adae6	0.22935066
32	0x3d975583	0.07389357
33	0xbd5bed78	-0.053693265
34	0xbea2ff83	-0.31835565
35	0x3e63b5f8	0.22237384
36	0xbdb01bc1	-0.08599044
37	0xbe194e07	-0.14971171
38	0x3e963221	0.2933512
39	0x3b952566	0.0045515774
40	0xbdf27543	-0.11838772
41	0x3db82cca	0.08992918
42	0xbe29f5e4	-0.16597706
43	0xbe8098a7	-0.25116464
44	0x3ea0aca2	0.31381708
45	0x3ed51166	0.41614836
46	0xbe0932a6	-0.13398227
47	0xbd785c56	-0.060634933
48	0x3c29efb7	0.010372094
49	0xbe623b58	-0.2209295
50	0xbdd44b9d	-0.103659846
51	0x3df98b20	0.12184739
52	0x3e0a96fb	0.13534157
53	0x3c7b77a7	0.015348352
54	0xbec864c2	-0.39139372
55	0x3d992b5a	0.07478972
56	0xbe3e2b7e	-0.18571278
57	0x3dcd1b94	0.10015026
58	0xbd841e93	-0.06451144
59	0xbce5d11c	-0.028053813
60	0xbd62cee7	-0.0553731
61	0x3dbd1bd1	0.09233821
62	0xbec08359	-0.3760021
63	0x3e56bf4c	0.20971411

batchnorm1.weight f4 [64]
0	0x3fafb774	1.372786
1	0x3fac40f7	1.3457326
2	0x3f548bb8	0.83025694
3	0x3f7300e2	0.9492322
4	0x3fa112c1	1.2583848
5	0x3f801b17	1.0008267
6	0x3f1c6e27	0.6110558
7	0x3f9c57dd	1.2214314
8	0x3f8df51b	1.1090425
9	0x3fa0c81c	1.2561069
10	0x3fc11fe7	1.5087861
11	0x3f9a61e1	1.206112
12	0x3f4ff932	0.81239617
13	0x3f874d81	1.0570527
14	0x3f42bf1b	0.76072854
15	0x3f7ef74c	0.99596095
16	0x3fa97f78	1.3242025
17	0x3f9b6451	1.2139989
18	0x3f9a823c	1.2070994
19	0x3f4b6786	0.7945484
20	0x3fa0a203	1.2549442
21	0x3f841b76	1.032088
22	0x3f9d7ac9	1.2303096
23	0x3f422973	0.75844496
24	0x3f88ea38	1.0696478
25	0x3f8caf79	1.099105
26	0x3fa85031	1.3149472
27	0x3f8504c3	1.0392078
28	0x3f84915d	1.0356861
29	0x3fc3a22f	1.528387
30	0x3f8630bb	1.0483621
31	0x3f99f9ba	1.2029335
32	0x3f256f71	0.6462317
33	0x3fa8d4fa	1.3189995
34	0x3f9194bd	1.1373516
35	0x3f739d4c	0.9516189
36	0x3faf4390	1.3692493
37	0x3fd5710a	1.6675122
38	0x3f444edb	0.76682824
39	0x3fa357cc	1.2761168
40	0x3f85a436	1.0440738
41	0x3fb7282e	1.4309137
42	0x3fa1414f	1.2598056
43	0x3f7d8b19	0.9904037
44	0x3faaee4f	1.3353976
45	0x3f05f2a1	0.5232335
46	0x3f4aed37	0.7926821
47	0x3f58ebd2	0.84734833
48	0x3f8aff30	1.0859127
49	0x3f767d35	0.962848
50	0x3fa3cc23	1.2796673
51	0x3f7c5adc	0.9857614
52	0x3f69e7c8	0.91369295
53	0x3fa0ab53	1.2552284
54	0x3fad24eb	1.3526891
55	0x3f5b8482	0.85749066
56	0x3f4fc375	0.8115762
57	0x3f83b18a	1.0288556
58	0x3f478de5	0.7795089
59	0x4009807b	2.1484668
60	0x3fb63c5a	1.4237168
61	0x3f6ba30b	0.9204566
62	0x3f509cd3	0.81489295
63	0x3f0b45bf	0.544033

batchnorm1.bias f4 [64]
0	0xbd313814	-0.04326637
1	0xbdea79a3	-0.114489816
2	0x3de38fd6	0.11111419
3	0xbe6965f5	-0.227928
4	0xbd0f690a	-0.035012282
5	0x3e265240	0.16242313
6	0x3e058833	0.13040237
7	0x3ed6c51d	0.4194726
8	0xbee35657	-0.4440181
9	0x3d04a529	0.03238407
10	0xbe521bb1	-0.20518376
11	0xbf451e3b	-0.76999253
12	0xbecdcc0a	-0.40194732
13	0x3e22b5a7	0.15889607
14	0x3d6b1d89	0.057401214
15	0xbe130f81	-0.14361383
16	0xbe6b0cc8	-0.22954094
17	0xbe78f8c3	-0.24313645
18	0x3d8b03c9	0.06787831
19	0xbeac10da	-0.33606607
20	0xbb352483	-0.002764017
21	0xbcf8d24c	-0.030373715
22	0xbea9fa94	-0.33198988
23	0xbcbf4b1b	-0.023351243
24	0xbc131cc4	-0.008979026
25	0xbdec0671	-0.11524666
26	0xbe76e34c	-0.24110144
27	0x3e0b6cad	0.13615675
28	0xbe2774e1	-0.1635318
29	0xbee339b8	-0.44379973
30	0xbe3ca4de	-0.18422267
31	0xbe2a9f23	-0.16662268
32	0xbda068c6	-0.07832484
33	0xbea05844	-0.3131734
34	0x3df0573c	0.11735389
35	0x3bd31cdc	0.0064426493
36	0xbc631bcd	-0.013861609
37	0xbe9ff7cd	-0.31243744
38	0x3d070fef	0.03297418
39	0xbc8bae14	-0.01705078
40	0xbe84cdba	-0.25938207
41	0xbf039ce1	-0.51411253
42	0xbdd11381	-0.10208798
43	0xbe4b9521	-0.19881107
44	0xbdb34768	-0.08753854
45	0x3dc541b3	0.09631672
46	0x3d929c08	0.07158667
47	0x3e199016	0.1499637
48	0xbd750b4e	-0.059825234
49	0x3c34b21c	0.011028793
50	0xbdb2de30	-0.08733785
51	0xbdaf7095	-0.08566395
52	0xbbd3c863	-0.006463097
53	0x3d3c3099	0.045944784
54	0xbef2ed37	-0.47446606
55	0xbd9c4685	-0.07630638
56	0xbda8be87	-0.08239465
57	0x3d1ea6b6	0.038733207
58	0xbee61f05	-0.4494554
59	0xbf0af4e8	-0.5427995
60	0xbe898480	-0.26858902
61	0xbd8f75ce	-0.07004891
62	0xbde514a6	-0.11185579
63	0xbdcb0319	-0.099127

batchnorm1.running_mean f4 [64]
0	0x3cff0823	0.03113181
1	0x3e2b0222	0.16700032
2	0x3ea023c3	0.31277284
3	0xbe348f13	-0.17632703
4	0xbebf032e	-0.37307113
5	0xbef488a8	-0.4776051
6	0xbda28657	-0.079357795
7	0xbdc2c140	-0.09509516
8	0x3d831266	0.063999936
9	0x3d9354d9	0.07193918
10	0xba7093dd	-0.0009177307
11	0xbe1faa70	-0.1559236
12	0x3e0ec04e	0.13940546
13	0x3e0b2309	0.13587584
14	0xbe283929	-0.16428055
15	0x3e0e33ce	0.1388695
16	0xbc6e94f6	-0.014561882
17	0x3e1b146e	0.15144512
18	0x3e8ed54e	0.27897114
19	0x3e461b16	0.1934627
20	0xbea0824c	-0.3134941
21	0x3e573196	0.2101501
22	0x3e667d52	0.22508743
23	0x3c40a233	0.011757421
24	0x3e466616	0.1937488
25	0xbc5dbf9c	-0.013534453
26	0xbe0b0991	-0.13577868
27	0x3cfb80bb	0.030701032
28	0x3d059880	0.03261614
29	0xbeaaab38	-0.33333755
30	0x3e6712c1	0.22565748
31	0x3e5df8f3	0.21676998
32	0x3d9e8e30	0.07741964
33	0xbd019f7c	-0.031646237
34	0xbec03ece	-0.37547916
35	0x3e612f51	0.21990706
36	0xbdd5d359	-0.10440702
37	0xbdeb3b91	-0.11485971
38	0x3e853870	0.2601962
39	0x3cad8fc2	0.021186713
40	0xbdf439f4	-0.11925116
41	0x3d98df58	0.074644744
42	0xbe3f482b	-0.18679874
43	0xbe79e3f2	-0.2440336
44	0x3e8793f8	0.2648008
45	0x3ed7d5cc	0.42155302
46	0xbe00b18e	-0.12567732
47	0xbdb4cfb7	-0.08828681
48	0xbccb288b	-0.024799606
49	0xbe408321	-0.18800022
50	0xbde3e2fd	-0.11127279
51	0x3dc3ed03	0.09566691
52	0x3e0e6197	0.13904415
53	0x3aae1fae	0.0013284588
54	0xbec946f8	-0.39311957
55	0x3dba8a99	0.09108467
56	0xbe5324ba	-0.20619479
57	0x3da9a446	0.08283286
58	0xbd9a73f9	-0.07541651
59	0xbcb966f6	-0.022632103
60	0xbcf37f85	-0.029723892
61	0x3db6bf30	0.08923185
62	0xbec389d5	-0.38191095
63	0x3e55ca17	0.20877872

batchnorm1.running_var f4 [64]
0	0x3fa708a2	1.304951
1	0x3fc074c8	1.5035639
2	0x3f1849ff	0.5948791
3	0x3f35a594	0.7095578
4	0x3f3a87d7	0.72863525
5	0x3f6bc24c	0.9209335
6	0x3f6b3654	0.91879773
7	0x3f44c5a8	0.768641
8	0x3fad5b13	1.3543419
9	0x3f51333c	0.817188
10	0x40091435	2.1418583
11	0x4019103f	2.3916166
12	0x3f822eec	1.017057
13	0x3f62f908	0.8866124
14	0x3f52958c	0.8225944
15	0x3f80619f	1.0029792
16	0x3fb7bf60	1.4355278
17	0x3ff9743a	1.9488595
18	0x3fbfb4cb	1.4977049
19	0x3fa5779c	1.2927127
20	0x3f8e505e	1.1118276
21	0x3f874933	1.0569214
22	0x3fbe2517	1.4855069
23	0x3f367fcc	0.7128875
24	0x3f3bee2a	0.73410285
25	0x3f79d843	0.97595614
26	0x3fe8e54a	1.8194973
27	0x3fcd5a3e	1.6043165
28	0x3f6ceac9	0.92545754
29	0x3fed2b51	1.8528844
30	0x3f8b56f2	1.0885909
31	0x3f40b7d2	0.7528049
32	0x3f7c50d3	0.9856083
33	0x3f9dfec6	1.2343376
34	0x4040161c	3.0013494
35	0x3f76fc11	0.9647837
36	0x3fa251d6	1.2681224
37	0x3f187bdd	0.59564
38	0x3f97b3cd	1.1851746
39	0x3f96bd2f	1.1776484
40	0x3fadf472	1.3590224
41	0x3f9abb32	1.2088377
42	0x3f3f4ec6	0.74729574
43	0x3f8982e2	1.0743067
44	0x409536d5	4.6629434
45	0x3f968dcb	1.1762022
46	0x3f1f3a85	0.6219867
47	0x3f419447	0.7561688
48	0x3ee23ecf	0.44188544
49	0x3f0c70dc	0.5485971
50	0x4048976e	3.1342425
51	0x3f76c3e2	0.96392643
52	0x3fbbb698	1.4665098
53	0x3f6a1777	0.91442055
54	0x408611f8	4.1896935
55	0x3f90c8ff	1.1311339
56	0x3f170d82	0.59004986
57	0x3f898058	1.0742292
58	0x3fc866ca	1.5656369
59	0x40808aa9	4.0169263
60	0x3f13ad26	0.5768608
61	0x3f6bc1eb	0.9209277
62	0x3fa95546	1.3229148
63	0x3f41252d	0.7544735

conv2.weight f4 [128, 64, 3]
0	0xbc0a0a4f	-0.008425309
1	0x3f36058f	0.7110223
2	0xbd0ace70	-0.03388828
3	0xbd819a73	-0.06328287
4	0xbe5c8683	-0.21535687
5	0x3bf8d5de	0.0075938543
6	0xbd7575c1	-0.059926752
7	0xbeb801ec	-0.35938966
8	0xbd8a8b77	-0.06764882
9	0xbcf22e78	-0.029563174
10	0x3df51253	0.11966386
11	0xbd15fbb2	-0.03661699
12	0xbd7480cc	-0.059693143
13	0xbee4937d	-0.44643775
14	0x3d0b5081	0.03401232
15	0x3d92ab30	0.07161558
16	0xbeb83500	-0.35977936
17	0x3d1edfa5	0.038787503
18	0xbd0d4729	-0.03449169
19	0xbe2f190f	-0.17099403
20	0x3c425c0c	0.011862766
21	0x3d333857	0.0437549
22	0xbc1fe3c0	-0.00975889
23	0xbd22f875	-0.03978773
24	0xbc246d7d	-0.01003587
25	0xbe023c82	-0.12718394
26	0x3d3c9e87	0.04604962
27	0x3b6673ac	0.003516416
28	0xbe457486	-0.19282731
29	0xbbab0a88	-0.0052197613
30	0x3c962da1	0.018332304
31	0xbd3ea524	-0.04654421
32	0x3d2d2ca9	0.04227892
33	0x3d803e2f	0.062618606
34	0x3cb28d27	0.021795822
35	0xbd345b4e	-0.044032387
36	0x3d5dbb03	0.054133426
37	0xbe5098b1	-0.20370747
38	0x3ceff366	0.029290866
39	0xbcad3755	-0.021144548
40	0x3f0a7282	0.54080975
41	0xbd0321e1	-0.03201473
42	0x3c814ef0	0.01578471
43	0xbf020eb8	-0.5080371
44	0xbb632976	-0.0034662164
45	0xbd45fd23	-0.048337113
46	0x3d946512	0.0724584
47	0x3c9db518	0.019251391
48	0xbd863860	-0.065537214
49	0x3c77c4eb	0.0151226325
50	0x3d85811e	0.06518768
51	0xbd48a150	-0.048981965
52	0x3e7e273b	0.24819653
53	0x3d224f08	0.03962615
54	0xbc704dca	-0.014666984
55	0xbce711e1	-0.028206768
56	0xbd39e6ad	-0.045386005
57	0xbd82d095	-0.0638744
58	0xbde4cc39	-0.11171765
59	0x3d84ee1b	0.064907275
60	0x3d04d038	0.032425135
61	0xbe2eb1f1	-0.17060067
62	0xbace8b2e	-0.0015758032
63	0xbd8ce844	-0.06880239
64	0xbefc0d38	-0.49228835
65	0x3b8daafa	0.0043233605
66	0x3d3c038b	0.045901816
67	0x3e3046ef	0.17214559
68	0x3cd40f98	0.025886342
69	0x3cea41e5	0.028595874
70	0xbfcfcae7	-1.6233796
71	0xbc76334f	-0.015026881
72	0xbc591551	-0.013249711
73	0x3ec6df44	0.38842213
74	0x3c246c9f	0.010035663
75	0xbd85519f	-0.065097086
76	0x3f199a67	0.60001224
77	0x3d5ca07f	0.053864
78	0x3c54990a	0.0129759405
79	0xbe3b59b4	-0.18295938
80	0xbccc5b67	-0.024945928
81	0xbc9d289e	-0.019184407
82	0xbe5f7ad6	-0.21824202
83	0x3cb69b8c	0.022290967
84	0x3d259222	0.040422566
85	0x3f163dcf	0.5868806
86	0xbaae0614	-0.0013276958
87	0xbb66a77d	-0.0035195046
88	0xbed3eb53	-0.41390476
89	0x3cade5e9	0.021227794
90	0x3d40e265	0.047090907
91	0xbead7127	-0.3387539
92	0x3ae85983	0.0017726872
93	0xbb0e122e	-0.0021678316
94	0xbd8631a6	-0.065524384
95	0xbc722958	-0.014780365
96	0xbd6491aa	-0.05580298
97	0xbe96f918	-0.29486918
98	0xbd32b6c0	-0.043631315
99	0xbce16959	-0.027516054
100	0x3dabaace	0.08382188
101	0xbd5f3e07	-0.054502513
102	0xbd71b53c	-0.05901073
103	0x3e1c3afd	0.15256877
104	0x3caff57b	0.021479359
105	0x3d8e26f1	0.06941021
106	0x3f0a28e0	0.5396862
107	0x3d366b18	0.044535726
108	0x3d052969	0.032510195
109	0x3f371be4	0.7152693
110	0xbd0441dc	-0.03228937
111	0xbb9ca6ad	-0.0047806115
112	0xbeb53fe6	-0.35400313
113	0xbd7848b9	-0.06061623
114	0xbd4ed234	-0.050493434
115	0xbdc0d586	-0.09415726
116	0x3d23d0ed	0.03999417
117	0xbd0ef364	-0.034900084
118	0x3f0c283d	0.547489
119	0xbce94e2a	-0.028479654
120	0xbc85c420	-0.016328871
121	0xbf49f6b2	-0.7889205
122	0xbd7ab073	-0.06120343
123	0x3cdddc2f	0.02708253
124	0xbe08f878	-0.13376033
125	0x3d555650	0.052084267
126	0xbd66592d	-0.05623739
127	0xbe9eba22	-0.31001383
128	0xbc96c00f	-0.018402128
129	0xbc7b8d25	-0.015353476
130	0xbf43b41d	-0.76446706
131	0x3d5cbebd	0.05389284
132	0xbd06fd54	-0.032956436
133	0xbca98b21	-0.020696225
134	0xbc7c71eb	-0.01540802
135	0x3d44e75c	0.048072204
136	0xbdd369d0	-0.103229165
137	0xbd104a8b	-0.03522734
138	0xbbf8a584	-0.0075880904
139	0xbee2c2d9	-0.44289282
140	0xbb847d86	-0.004043284
141	0x3d3338ae	0.043755226
142	0x3df3f14b	0.11911257
143	0x3c70f5ba	0.014707023
144	0x3d177bc3	0.036983263
145	0x3ebc9df3	0.36839256
146	0x3d7c514c	0.06160097
147	0x3c048a7a	0.008089656
148	0xbeb6707c	-0.35632694
149	0x3d7bfb41	0.06151891
150	0x3b1efb27	0.0024258585
151	0x3e9463c4	0.28982365
152	0xbc5d6f88	-0.013515361
153	0xbced02ee	-0.028932061
154	0x3f0fe89a	0.56214297
155	0xbd0930f5	-0.033493955
156	0xbd4a914d	-0.049454976
157	0x3daa25f9	0.08308024
158	0xbca7d65f	-0.020487962
159	0x3d82639e	0.06366657
160	0x3f04b3ec	0.5183704
161	0xbc9c4303	-0.019074922
162	0xbd062525	-0.032750268
163	0x3e71a880	0.23599434
164	0x3d7092a8	0.058733612
165	0xbd1e82db	-0.038699012
166	0xbdee8656	-0.11646716
167	0x3d0e1a0e	0.034692816
168	0x39aa3251	0.00032462415
169	0x3db62b79	0.088950105
170	0xbd00c284	-0.031435505
171	0xbd77ca34	-0.06049557
172	0x3e8ed86e	0.27899498
173	0x3d527e95	0.05139025
174	0xbd29e140	-0.04147458
175	0xbecf7252	-0.40516907
176	0xbd01226d	-0.03152697
177	0xbd532322	-0.051547177
178	0xbf7fdc17	-0.99945205
179	0xbc45909b	-0.012058402
180	0x3d33fb90	0.04394108
181	0xbe5f36ee	-0.21798298
182	0x3d23f1df	0.040025588
183	0x3d8acf9f	0.06777882
184	0xbf2ec083	-0.682625
185	0x3d1b3efb	0.03790186
186	0x3d4304bb	0.047611933
187	0x3d2e3d67	0.042539027
188	0xbab79e6a	-0.0014009003
189	0xbd450ba2	-0.048106797
190	0xbe6f1071	-0.23346116
191	0xbd6c6632	-0.05771465
192	0x3b8178ab	0.0039511523
193	0x3ef06f32	0.46959835
194	0x3d8fe6d2	0.07026447
195	0x3cd99075	0.02655814
196	0xbe8a0e1e	-0.26963896
197	0x3bc7ba5b	0.0060952133
198	0x3d5c2498	0.053745836
199	0x3e3bf198	0.1835388
200	0xbb220a2f	-0.0024725308
201	0xbd6498ba	-0.055809714
202	0xbe271ede	-0.16320369
203	0x3cb1a663	0.021685785
204	0xbd3e21d9	-0.046419
205	0xbe275d50	-0.1634419
206	0xbd66f7e0	-0.056388736
207	0xbd70c840	-0.058784723
208	0xbf675cb6	-0.9037584
209	0xbccbbb6c	-0.024869643
210	0x3cf8be8a	0.030364294
211	0xbe534c25	-0.20634516
212	0x3d5e1730	0.054221332
213	0xbd2d121d	-0.042253602
214	0xbddb6fcf	-0.10714685
215	0xbc28b064	-0.010295961
216	0x3d2ca206	0.042146705
217	0x3e922d77	0.28550312
218	0xbc2e8030	-0.0106506795
219	0x3caf04ff	0.021364687
220	0x3f09cb0d	0.53825456
221	0xbc264b92	-0.010149853
222	0xbd095d2d	-0.033536125
223	0x3f287623	0.6580526
224	0x3ca37904	0.019955166
225	0x3d0ab66a	0.03386537
226	0xbf18e36e	-0.5972203
227	0x3d6ff193	0.058579993
228	0xbb08f021	-0.002089508
229	0xbe5c98a5	-0.21542604
230	0xbd5160a1	-0.051117543
231	0x3d38cde9	0.045118246
232	0x3ef110d6	0.47083157
233	0xbd40e4f5	-0.04709335
234	0xbd88ac81	-0.066735275
235	0xbe4687af	-0.19387697
236	0xbd573224	-0.052538052
237	0xbc519958	-0.012792908
238	0x3f03966b	0.51401395
239	0xbcd4819f	-0.025940714
240	0xbd2df9fd	-0.042474736
241	0xbefe212a	-0.49634677
242	0x3c206dc6	0.009791797
243	0xbc31532d	-0.010823053
244	0xbe2bb62a	-0.16768709
245	0x3b816566	0.003948855
246	0xbc23a59e	-0.009988217
247	0x3e38791f	0.18014954
248	0x3d0953b2	0.033527084
249	0xbd52d08c	-0.051468417
250	0xbea0d0a1	-0.3140917
251	0x3c57eec3	0.013179484
252	0x3b907e41	0.004409582
253	0xbd436acd	-0.047709275
254	0xbc9bcd0d	-0.019018674
255	0x3d8e9dcb	0.0696369

conv2.bias f4 [128]
0	0xbc6cf095	-0.014461656
1	0x3c80eb9a	0.015737344
2	0x3c2bf30e	0.0104949605
3	0xbdb66305	-0.08905605
4	0x3d612154	0.054963425
5	0x3d0d658f	0.034520682
6	0x3bc6007d	0.0060425387
7	0xbd1b98f4	-0.037987664
8	0xbcbc900f	-0.023017911
9	0xbd385397	-0.045001592
10	0xbe1cfe49	-0.15331377
11	0x3d7ac578	0.061223477
12	0x3d622032	0.055206485
13	0x3e0416f5	0.12899382
14	0x3bc9d4c8	0.0061593987
15	0x3d396d2a	0.045270123
16	0x3d783e96	0.06060656
17	0x3d8a840f	0.067634694
18	0x3d9bdfea	0.076110676
19	0xbe1394fb	-0.144123
20	0xbcf20962	-0.02954549
21	0xbdddba51	-0.10826553
22	0x3c0e75b4	0.008695055
23	0xbd641fb3	-0.055694293
24	0xbd9322f4	-0.07184401
25	0xba9d8f07	-0.0012020775
26	0xbdb9fe98	-0.09081763
27	0xbd63b234	-0.05558987
28	0xbd8fda9c	-0.07024118
29	0xbdf5e98c	-0.12007436
30	0xbd36f562	-0.04466761
31	0x3ced78a1	0.028988184
32	0x3d0764e3	0.033055197
33	0xbc77c0cc	-0.01512165
34	0x3d9d64cc	0.07685241
35	0xbd198cd0	-0.037487805
36	0x3cea1a22	0.028576914
37	0x3a353660	0.00069127046
38	0xbd558063	-0.052124392
39	0x3db3249d	0.08747218
40	0xbd96853e	-0.07349633
41	0x3cf6eeb7	0.030143125
42	0x3bba860c	0.005692249
43	0x3dacac59	0.0843131
44	0xbe33435f	-0.17506169
45	0x3d7d781b	0.06188212
46	0x3da6b80b	0.08140572
47	0x3cb38a44	0.021916516
48	0xbdcf65ea	-0.101268604
49	0x3d9ae4ef	0.07563197
50	0xbdce0a4a	-0.10060556
51	0x3db9e527	0.090769105
52	0x3c91c6f8	0.017795071
53	0xbd4fa537	-0.05069467
54	0x3d95cc73	0.07314386
55	0x3d1cb46e	0.03825801
56	0xbd007908	-0.031365424
57	0xbd70a21d	-0.058748353
58	0xbce93f58	-0.028472587
59	0x3e07c5b9	0.13259019
60	0xbd898e1e	-0.0671656
61	0xbdb57a45	-0.08861212
62	0x3da49f2b	0.080381714
63	0x3e463d70	0.19359374
64	0x3d15cf67	0.036574747
65	0xbd03e29b	-0.03219853
66	0xbc2365cb	-0.009973
67	0xbbac93ae	-0.005266628
68	0xbe4cbe3d	-0.19994445
69	0x3c804a33	0.015660381
70	0x3e0c19cb	0.13681714
71	0x3daead15	0.085291065
72	0x3e195704	0.149746
73	0x3c533c86	0.012892848
74	0x3d8eec71	0.06978691
75	0x3da0104b	0.07815608
76	0xbd4440fb	-0.047913533
77	0xbd93b2b0	-0.07211816
78	0x3cb948f2	0.02261779
79	0xbdb15bfe	-0.08660124
80	0xbda5220f	-0.08063137
81	0xbde92205	-0.11383442
82	0x3d6840bd	0.056702364
83	0x3d39fb08	0.045405418
84	0xbd5c0b19	-0.05372152
85	0xbcc8120d	-0.02442267
86	0x3b187147	0.0023260878
87	0x3d9a5740	0.07536173
88	0x3c99a81f	0.018756924
89	0xbd355732	-0.04427261
90	0xbc875b23	-0.01652295
91	0x3ced9fba	0.029006828
92	0x3dd09b12	0.10185827
93	0xbb98bb86	-0.0046610264
94	0xbdbfa031	-0.09356726
95	0xbd39d5e5	-0.04537
96	0xbcfa5aa1	-0.030560793
97	0xbd1faf61	-0.038985614
98	0xbd12a950	-0.035806
99	0x3dd70fca	0.105010584
100	0xbd2168b1	-0.039406482
101	0xbd3518e0	-0.044213176
102	0xbd54bd91	-0.051938597
103	0x3d039deb	0.032133024
104	0xbe23c3d1	-0.15992667
105	0xbcaeaa05	-0.021321306
106	0x3e30ab5a	0.17252865
107	0xbd484192	-0.048890658
108	0xbcf86fbe	-0.03032672
109	0x3ddefe51	0.10888351
110	0x3da01dc0	0.07818174
111	0x3d8e73d7	0.069556884
112	0xbda8e1c9	-0.0824619
113	0xbbe0677f	-0.006848275
114	0xbd0f256a	-0.03494779
115	0xbe40bfe5	-0.18823202
116	0x3d8a28e1	0.06746078
117	0xbda9fd92	-0.08300318
118	0xbc9ee1cb	-0.019394776
119	0xbcd00d58	-0.025396988
120	0x3c63dab2	0.0139071215
121	0xbd573051	-0.052536312
122	0xbd3a8b19	-0.04554281
123	0x3d353727	0.04424205
124	0xbdda6ab5	-0.10664884
125	0x3d80f6ed	0.06297097
126	0xbdd37a93	-0.103261136
127	0xbdf0e180	-0.11761761

batchnorm2.weight f4 [128]
0	0x3f806287	1.0030068
1	0x3f64232e	0.8911618
2	0x3f867f01	1.0507509
3	0x3f892e14	1.0717187
4	0x3f7fd365	0.9993194
5	0x3f81a238	1.012763
6	0x3f720f48	0.9455457
7	0x3f992c33	1.1966614
8	0x3f745a82	0.95450604
9	0x3fbd8103	1.4804996
10	0x3f676857	0.90393585
11	0x3f91a0a3	1.1377147
12	0x3f79439a	0.97368777
13	0x3f9f6304	1.2452092
14	0x3f94c820	1.1623573
15	0x3fb8b15e	1.4429128
16	0x3fa12ab7	1.259116
17	0x3f568c50	0.8380785
18	0x3f5c8110	0.86134434
19	0x3f900a65	1.1253172
20	0x3f876582	1.0577853
21	0x3f97be84	1.1855016
22	0x3f807596	1.0035884
23	0x3fb672e9	1.4253818
24	0x3fa5bdaa	1.2948506
25	0x3fa3c041	1.2793046
26	0x3fbcfd73	1.4764847
27	0x3f644ebe	0.8918265
28	0x3fad6991	1.3547841
29	0x3fccbcdb	1.5995134
30	0x3f914de1	1.1351892
31	0x3fbfe867	1.4992799
32	0x3f820af8	1.0159597
33	0x3fd118aa	1.6335652
34	0x3f95bbf0	1.1697979
35	0x3fbc9ab7	1.4734715
36	0x3f8fc79e	1.1232793
37	0x3f3eb23c	0.74490714
38	0x3f3bd0da	0.7336556
39	0x3f8e5b13	1.1121544
40	0x3f71690a	0.943009
41	0x3f9710d7	1.1802014
42	0x3f68d2d7	0.90946716
43	0x3fa3a565	1.278485
44	0x3fb16a82	1.3860629
45	0x3f902edd	1.1264302
46	0x3fb10261	1.3828851
47	0x3f8ee887	1.1164712
48	0x3fc697f7	1.5515126
49	0x3f714e98	0.9426055
50	0x3f7de620	0.9917927
51	0x3f4ccc5f	0.79999346
52	0x3f9510ee	1.1645792
53	0x3f689d52	0.9086505
54	0x3f906331	1.1280271
55	0x3f8386e3	1.0275539
56	0x3f52d7ec	0.8236072
57	0x3fa01e95	1.2509333
58	0x3f5f90f8	0.8733058
59	0x3f6acd4a	0.91719496
60	0x3f9e2501	1.2355043
61	0x3f8389f6	1.0276477
62	0x3f62a99c	0.88540053
63	0x3f910605	1.1329962
64	0x3f9aadfe	1.2084348
65	0x3f1690ad	0.5881451
66	0x3f9e89e9	1.2385837
67	0x3f798edb	0.97483605
68	0x3fbc42c9	1.4707881
69	0x3f76cd68	0.96407175
70	0x3f9fb6ee	1.2477701
71	0x3f9acd9f	1.2094
72	0x3f68a094	0.9087002
73	0x3f86035b	1.0469774
74	0x3fc1d2b0	1.5142422
75	0x3fa5d7d2	1.2956488
76	0x3f7b28d1	0.98109156
77	0x3f6fc674	0.9366219
78	0x3fadc3b7	1.3575352
79	0x3f9e4471	1.2364637
80	0x3f9fb3b1	1.2476712
81	0x3f98d469	1.1939822
82	0x3f90fe35	1.1327578
83	0x3fb7524e	1.4321992
84	0x3f79c8ce	0.9757203
85	0x3fb42b5c	1.4075732
86	0x3fa77d6c	1.3085151
87	0x3f5a230c	0.8520973
88	0x3fad6186	1.3545387
89	0x3f9152cc	1.1353393
90	0x3f867012	1.0502951
91	0x3fc19bbf	1.5125655
92	0x3f99077f	1.1955413
93	0x3f9c4891	1.2209646
94	0x3f8e65ba	1.1124794
95	0x3fba2ece	1.4545534
96	0x3f4631c4	0.77419686
97	0x3f84ce3f	1.0375441
98	0x3f274614	0.65341306
99	0x3f5210c7	0.8205685
100	0x3f5a1268	0.85184336
101	0x3fbdded0	1.4833622
102	0x3fab3122	1.3374369
103	0x3f906611	1.1281148
104	0x3fabf567	1.3434266
105	0x3f7e1917	0.99257034
106	0x3f99d6b9	1.2018653
107	0x3f8d2b2b	1.1028799
108	0x3f953337	1.1656255
109	0x3f8538d7	1.0407971
110	0x3f91b27d	1.1382595
111	0x3f978341	1.183693
112	0x3fa290a3	1.270039
113	0x3f8f2a6e	1.1184824
114	0x3f9cbf39	1.2245857
115	0x3f8830da	1.0639908
116	0x3f81f1cb	1.0151914
117	0x3f8758a4	1.0573926
118	0x3f8caece	1.0990846
119	0x3f9477f1	1.1599103
120	0x3f980a0a	1.1878064
121	0x3f9991ed	1.1997658
122	0x3fc72ecc	1.5561156
123	0x3f9e1010	1.2348652
124	0x3f9a57e0	1.2058067
125	0x3f21fbe2	0.6327497
126	0x3f86ef7b	1.0541834
127	0x3f15ab12	0.5846416

batchnorm2.bias f4 [128]
0	0xbe19a1d6	-0.15003142
1	0xbd5ea90e	-0.054360442
2	0xbe93c3db	-0.28860363
3	0xbecaa111	-0.3957601
4	0xbf283787	-0.6570973
5	0xbe754a7b	-0.23954193
6	0xbd3d7544	-0.04625441
7	0xbeeba27a	-0.46022397
8	0xbdddfa4c	-0.10838756
9	0xbe8429fe	-0.25813287
10	0xbe0f103b	-0.13971035
11	0xbe2f9cf7	-0.17149721
12	0x3d3b9577	0.045796838
13	0xbe9dee8d	-0.30846062
14	0xbe1f730d	-0.15571232
15	0xbf177b2a	-0.5917231
16	0xbee628c7	-0.44952986
17	0xbe82c03d	-0.2553729
18	0xbb96e18d	-0.0046045245
19	0xbf0f4d6d	-0.5597752
20	0xbefe11d6	-0.49622983
21	0xbf2e66a6	-0.6812538
22	0xbeb1152b	-0.34586462
23	0xbeeff6c6	-0.4686796
24	0xbf3a3524	-0.72737336
25	0xbf0364c2	-0.5132562
26	0xbe8653d6	-0.26235837
27	0xbe82c607	-0.25541708
28	0xbe655516	-0.22395739
29	0xbf24a295	-0.6431058
30	0xbf19c167	-0.60060734
31	0xbe479deb	-0.19493835
32	0xbdae3560	-0.08506274
33	0xbf399858	-0.72498083
34	0xbeee98b9	-0.46600893
35	0xbf148436	-0.5801424
36	0xbd87d541	-0.06632472
37	0xbdc72ec1	-0.097257145
38	0xbe71e9fc	-0.23624414
39	0xbe6717fc	-0.22567743
40	0x3d1d7b4b	0.03844766
41	0xbe0930bc	-0.13397497
42	0xbdd8bc98	-0.105828464
43	0xbea9e0b1	-0.33179238
44	0xbf1e8441	-0.61920553
45	0xbe40f5dd	-0.1884379
46	0xbe5b9a6a	-0.21445623
47	0xbdda61b3	-0.10663166
48	0xbf02f52e	-0.51155365
49	0xbe5da7a3	-0.2164598
50	0xbda8b9da	-0.08238573
51	0xbe380647	-0.17971145
52	0xbebd9c4b	-0.37033305
53	0xbdeda819	-0.11604328
54	0xbe2c9b89	-0.16856207
55	0xbe9003a3	-0.28127775
56	0xbe58b72e	-0.21163628
57	0xbe368b6d	-0.17826624
58	0xbec280b3	-0.37988815
59	0xbe25fe2e	-0.16210243
60	0xbe3f65e0	-0.18691206
61	0xbeb58765	-0.3545486
62	0xbee1fb85	-0.44137207
63	0xbe4e5bc6	-0.20152196
64	0xbed46ab8	-0.4148767
65	0xbe92d8f4	-0.28681147
66	0x3a086f96	0.0005204616
67	0xbe8107d2	-0.2520128
68	0xbf0c792f	-0.5487241
69	0xbe0b803e	-0.1362314
70	0xbe138e84	-0.14409834
71	0xbf3f3dbe	-0.74703586
72	0xbe558cbd	-0.20854469
73	0xbe4ea49f	-0.20179985
74	0xbe8b7613	-0.2723852
75	0xbe9770ab	-0.29578146
76	0xbe2316a4	-0.15926605
77	0xbe9b7360	-0.30361462
78	0xbe77bcd5	-0.24193127
79	0xbe7c28c1	-0.24624921
80	0xbe51e56c	-0.20497674
81	0xbe8d1919	-0.2755821
82	0xbd88e5b9	-0.06684441
83	0xbe840458	-0.25784564
84	0xbed18ac6	-0.40926188
85	0xbe0be903	-0.13663106
86	0xbea12c43	-0.31479082
87	0xbeeeff1d	-0.4667901
88	0xbe577acb	-0.21042936
89	0xbe888117	-0.26660988
90	0xbf0d8609	-0.55282646
91	0xbdbfdc93	-0.09368243
92	0xbe810609	-0.25199917
93	0xbe342d64	-0.1759544
94	0xbec4b56b	-0.3841966
95	0xbe3245a7	-0.17409383
96	0xbe365833	-0.17807083
97	0xbd97df51	-0.07415641
98	0x3b81513c	0.0039464515
99	0xbebe5ce0	-0.37180233
100	0xbe15274d	-0.14565773
101	0xbf101de8	-0.56295633
102	0xbf070249	-0.5273786
103	0xbe87d40e	-0.26528972
104	0xbeac08e5	-0.33600536
105	0x3c569ec3	0.013099375
106	0xbecc999a	-0.3996094
107	0xbf04f6af	-0.5193891
108	0xbe60ee1d	-0.21965833
109	0xbc53d495	-0.0129291015
110	0xbee617a4	-0.4493991
111	0xbe9b8697	-0.3037612
112	0xbe1634db	-0.146686
113	0xbe8b90eb	-0.27259
114	0xbee38270	-0.44435453
115	0xbe5e9587	-0.21736728
116	0xbe832ab1	-0.25618508
117	0xbf0293a0	-0.5100651
118	0xbe5bf990	-0.2148192
119	0xbe8bd8ea	-0.2731393
120	0xbd14bad9	-0.036311004
121	0xbe0e4946	-0.13895139
122	0xbea6bb2c	-0.32564676
123	0xbdd533f7	-0.10410302
124	0xbe80f2cc	-0.2518524
125	0xbdab196d	-0.08354459
126	0xbdf55bd0	-0.119804025
127	0xbe2248af	-0.15848039

batchnorm2.running_mean f4 [128]
0	0xbf875328	-1.0572252
1	0xc027427c	-2.613433
2	0x3a822a3e	0.0009930802
3	0x4097baf8	4.7415733
4	0xbf853a42	-1.0408404
5	0xbed38c67	-0.41318056
6	0xbfce1018	-1.6098661
7	0xbf4344c5	-0.7627681
8	0x400ad59a	2.1692872
9	0xbe97d2a7	-0.29652902
10	0x3f68ab5f	0.9088649
11	0xc044c9ea	-3.0748239
12	0xc01a973c	-2.4154806
13	0x3e82796c	0.25483263
14	0x3de2cdde	0.11074422
15	0x40ba9d4c	5.8317013
16	0xc00045d1	-2.0042613
17	0xc00a11ab	-2.1573284
18	0xc0174c56	-2.3640342
19	0x40b5c386	5.6801176
20	0xbe554411	-0.20826747
21	0x40a83863	5.256883
22	0x3ffa2b1d	1.9544407
23	0x3fd7cd66	1.6859558
24	0x403730b9	2.8623488
25	0x4027fb45	2.6247113
26	0x401d9e59	2.4627898
27	0x3fa55731	1.2917234
28	0x3fffebc8	1.999383
29	0x40690e5b	3.6415012
30	0x407d5960	3.95858
31	0x3eea7ebb	0.45799813
32	0xbf21e972	-0.63246834
33	0x4090c92d	4.5245576
34	0x4021474d	2.5199769
35	0x3fbf4bd7	1.494502
36	0xbfceadc9	-1.6146785
37	0xbfad83e1	-1.3555871
38	0x3fb4fd95	1.4139887
39	0xbef3ffdc	-0.47656143
40	0xbe4ba05c	-0.19885391
41	0xbff79260	-1.9341545
42	0xbf9fcdea	-1.2484715
43	0x3e6cb685	0.231165
44	0xc0a0fba9	-5.03072
45	0xc0685051	-3.6299021
46	0x3f130b60	0.5743923
47	0x3f358256	0.70902
48	0x40a4f2cb	5.154638
49	0xbffdf6c1	-1.9840928
50	0xc06d844e	-3.7112002
51	0x3fffcf38	1.9985113
52	0xbff506ab	-1.914266
53	0xc0172738	-2.3617687
54	0xbfcff976	-1.6248004
55	0x3eeb4a73	0.45955238
56	0xbec2c37a	-0.38039762
57	0xbf49053b	-0.78523606
58	0x401c8623	2.445687
59	0xbfe889a2	-1.8167002
60	0xbf1fe24e	-0.6245469
61	0xbd8a1971	-0.06743134
62	0xbf1c8ef8	-0.61155653
63	0xbfd70856	-1.6799419
64	0x400ded52	2.21761
65	0xbfe277b1	-1.7692777
66	0xbfffd8e9	-1.9988071
67	0xbec89dfe	-0.39183038
68	0x4098ebb0	4.7787704
69	0xbf4d6bd9	-0.8024269
70	0xbf115e70	-0.56784725
71	0x40870acf	4.2200694
72	0x3fd6c117	1.6777676
73	0x3fcaf327	1.5855454
74	0x3f45903b	0.77173203
75	0x407ebcf9	3.980284
76	0xc0397cd5	-2.8982441
77	0xc0024a6e	-2.0357928
78	0xbf0bf579	-0.54671437
79	0x3f4cc0e5	0.79981834
80	0xc0170507	-2.3596818
81	0xbf1bb697	-0.60825485
82	0xbf83c353	-1.0293983
83	0xc006c333	-2.105664
84	0xc03b0dbf	-2.922714
85	0xbf4e18dc	-0.8050668
86	0x3efaf047	0.49011442
87	0x3f6cd99c	0.92519546
88	0x3dd4ae50	0.1038481
89	0x408d2801	4.4111333
90	0x3f5d544a	0.8645674
91	0x3ee676a8	0.45012403
92	0xbec78825	-0.38971058
93	0x3fb0c945	1.3811423
94	0x3fabd80d	1.3425308
95	0x3f84f885	1.0388342
96	0xc04bb86c	-3.1831312
97	0xc010be61	-2.2616198
98	0xc02fa9ae	-2.7447314
99	0x4024041d	2.562751
100	0xbfd143d5	-1.6348826
101	0x40901ebc	4.5037518
102	0x401b04de	2.422172
103	0xbff851d4	-1.9399972
104	0x3fd7798d	1.6833969
105	0x4007dfe5	2.1230404
106	0x402d8f12	2.7118573
107	0x4027820c	2.6173124
108	0xc051733c	-3.2726583
109	0xc024adb4	-2.573102
110	0x408d59b8	4.417202
111	0x407351fb	3.8018787
112	0xc014b8a8	-2.3237705
113	0x3da549d9	0.08070726
114	0x4092b204	4.5842304
115	0xc0306dab	-2.7566936
116	0xbf04167c	-0.5159681
117	0x404f65fd	3.2405999
118	0xc0026ad5	-2.0377705
119	0x3d35b202	0.044359215
120	0x3eb957d3	0.36199817
121	0xc02c9d60	-2.6971054
122	0x3e8599fa	0.26094037
123	0xbfcdad24	-1.6068463
124	0xc048b5bf	-3.136093
125	0xbfd697e8	-1.6765108
126	0x3f205e23	0.6264364
127	0x3fcb4d27	1.588292

batchnorm2.running_var f4 [128]
0	0x40d7b0a0	6.7403107
1	0x4125e6ce	10.368849
2	0x4108f73a	8.560358
3	0x40831095	4.095774
4	0x40a5940b	5.1743217
5	0x406d1858	3.7046108
6	0x40aacad7	5.3372607
7	0x40526536	3.2874274
8	0x40983278	4.7561607
9	0x40a59af6	5.175166
10	0x40b177d7	5.545879
11	0x411ee8fb	9.93188
12	0x40b217ba	5.5653963
13	0x40eaf56e	7.3424597
14	0x40dd1e69	6.909962
15	0x40f1f494	7.5611057
16	0x40956670	4.6687546
17	0x40a91493	5.2837615
18	0x40bab64f	5.8347545
19	0x40853433	4.162622
20	0x410ee49c	8.930813
21	0x409c9101	4.8927007
22	0x40aa9ce0	5.33165
23	0x409b1175	4.845881
24	0x40a85fc0	5.261688
25	0x410c8bb0	8.784103
26	0x4100d23c	8.051327
27	0x410a0559	8.626306
28	0x412315be	10.192808
29	0x40bc1263	5.8772445
30	0x40b97b30	5.7962875
31	0x40f63012	7.693368
32	0x411456bd	9.271176
33	0x40b54e1c	5.665785
34	0x410f5824	8.959019
35	0x40b13624	5.537859
36	0x40c09d55	6.0192056
37	0x40b3007c	5.593809
38	0x40eedd83	7.46454
39	0x4099173e	4.784087
40	0x40c09527	6.018207
41	0x40e6a12f	7.2071757
42	0x4092c931	4.5870595
43	0x4064a9d9	3.5728667
44	0x41313ced	11.077374
45	0x40b08cee	5.5172033
46	0x410d64b6	8.837088
47	0x406e3fbd	3.7226403
48	0x4106241d	8.383817
49	0x41104f1f	9.019317
50	0x40921be6	4.5659056
51	0x4038aaaa	2.8854165
52	0x40bacfe1	5.837876
53	0x40abc4d0	5.367775
54	0x40e72ed5	7.224467
55	0x409c3e22	4.8825846
56	0x4037ea1e	2.8736644
57	0x40d61d7c	6.691099
58	0x408c64ad	4.3872895
59	0x40b72c1d	5.724135
60	0x40564eb1	3.348553
61	0x409e5f25	4.9491143
62	0x40626190	3.5372047
63	0x411e3a0d	9.889173
64	0x40c1652f	6.0436015
65	0x402b7015	2.678716
66	0x40f3a68f	7.614082
67	0x406406dc	3.5629187
68	0x40d8d4a2	6.775956
69	0x40e04f37	7.00967
70	0x41122f9e	9.136625
71	0x406add46	3.6697555
72	0x409606dc	4.6883373
73	0x40ade270	5.4338913
74	0x40fb77f5	7.858393
75	0x40e4b12f	7.146629
76	0x4101d290	8.113907
77	0x40982fa6	4.7558165
78	0x40ebf491	7.3736043
79	0x411fc7b7	9.9862585
80	0x40d0b2ad	6.521811
81	0x409e74e8	4.951771
82	0x40bc542b	5.8852744
83	0x40f9dbc0	7.808075
84	0x41085a00	8.521973
85	0x411a4851	9.642655
86	0x40d614f1	6.6900563
87	0x408af6fa	4.3426485
88	0x40b522b7	5.6604877
89	0x40c538a2	6.163163
90	0x40cb1acf	6.3470225
91	0x40f7822e	7.734641
92	0x40b0c846	5.5244474
93	0x40f34d69	7.6031995
94	0x40bdafe7	5.9277225
95	0x40d13ef1	6.5389333
96	0x406a7e2c	3.663951
97	0x409fe857	4.997112
98	0x40c71910	6.2218094
99	0x411b1c19	9.69436
100	0x4078a336	3.8849616
101	0x41120e81	9.128541
102	0x407dc597	3.965185
103	0x4094b419	4.6469846
104	0x4086ed6a	4.216481
105	0x40d7bc6c	6.7417507
106	0x4061932b	3.5246074
107	0x40de6be7	6.9506717
108	0x4127fb18	10.498802
109	0x40a45a0d	5.1359925
110	0x40d863c9	6.762181
111	0x40cad892	6.338937
112	0x40fd20f7	7.910274
113	0x40b2c15e	5.5861044
114	0x40cf7107	6.4825473
115	0x40d5b267	6.6780276
116	0x40a291bc	5.08029
117	0x4087a4c9	4.2388654
118	0x40984f56	4.7596846
119	0x40ab7680	5.3582153
120	0x412e5755	10.896321
121	0x40fdba45	7.928988
122	0x40c1507f	6.041076
123	0x4142a2d3	12.164752
124	0x406d4a17	3.707647
125	0x407e2346	3.970903
126	0x413bfab9	11.748712
127	0x40c66eb8	6.2010155

fc1.weight f4 [256, 128]
0	0x3d44e933	0.04807396
1	0xbd8483fa	-0.06470485
2	0xbee811bb	-0.45326027
3	0xbf3d7875	-0.7401193
4	0x3d200dab	0.039075535
5	0x3ce4c5e8	0.0279264
6	0xbf3a1d45	-0.7270091
7	0xbf848197	-1.0352048
8	0xbf75c006	-0.9599613
9	0xbeef0659	-0.4668453
10	0xbebd9d30	-0.37033987
11	0x3e473244	0.19452769
12	0xbe994d24	-0.29941666
13	0x3e83552d	0.2565092
14	0x3dea4561	0.11439014
15	0x3f01e360	0.5073757
16	0xbfb88f36	-1.4418705
17	0x3ed1143a	0.40835744
18	0xbe1e499c	-0.15457767
19	0x3dc9e879	0.09858794
20	0x3f5011f1	0.81277376
21	0xbf1ec3f4	-0.6201775
22	0x3d3d9df0	0.0462932
23	0xbd0a97a6	-0.03383603
24	0x3ed99a36	0.42500466
25	0x3f09a2f5	0.5376428
26	0x3c8b1b11	0.01698068
27	0x3eacdd3d	0.3376254
28	0xbeaa4f8c	-0.33263814
29	0x3efd5469	0.49478462
30	0xbf133003	-0.57495135
31	0x3f0f1e92	0.5590602
32	0xbeecbfea	-0.4624017
33	0x3e127905	0.14303978
34	0xbf420188	-0.75783587
35	0xbfd43afd	-1.6580502
36	0xbeaffb8e	-0.34371608
37	0x3cb5673d	0.022143954
38	0x3e583f63	0.2111793
39	0xbe209ede	-0.15685603
40	0xbe5974ac	-0.21235913
41	0xbef16f00	-0.47155
42	0xbe166ca6	-0.14689884
43	0xbe27d6ef	-0.16390584
44	0xbe1b3c1c	-0.15159649
45	0xbec335de	-0.38127035
46	0xbf14f3f4	-0.5818474
47	0xbf653c73	-0.89545363
48	0x3ecf5260	0.40492535
49	0xbee64b80	-0.44979477
50	0x3e5337a8	0.206267
51	0xbd39d54e	-0.04536944
52	0xbf54978c	-0.8304374
53	0xbe1b1139	-0.15143289
54	0xbd7986f2	-0.06091971
55	0x3eb596b8	0.35466552
56	0xbe137dc5	-0.14403446
57	0x3e54c3a4	0.20777756
58	0xbe6f61b7	-0.23377119
59	0xbd8c9404	-0.06864169
60	0x3e11cda3	0.142386
61	0xbf46bcb2	-0.77631676
62	0xbe49da09	-0.1971208
63	0xbc80e4d4	-0.015734114
64	0x3f005452	0.5012866
65	0xbd37ea23	-0.044901025
66	0xbf00e5ef	-0.5035085
67	0x3e8623ef	0.2619929
68	0x3ea7081f	0.32623383
69	0xbbdc5f95	-0.0067252615
70	0xbe4a0246	-0.1972743
71	0x3f0d0ef6	0.55100954
72	0x3e644237	0.22290884
73	0x3c865a37	0.01640044
74	0xbea2c298	-0.31789088
75	0x3c16a913	0.009195584
76	0x3d827fb5	0.063720144
77	0xbfb55be6	-1.416867
78	0x3e2ecf45	0.17071255
79	0xbf10836f	-0.5645055
80	0x3f084adf	0.53239244
81	0xbc2e85c8	-0.010652013
82	0x3e9c4168	0.3051865
83	0xbee21c3a	-0.4416216
84	0xbdfd9f37	-0.123838834
85	0x3e9e51be	0.3092174
86	0xbf02fe6d	-0.5116947
87	0x3f498fe5	0.7873519
88	0xbeb3ea6f	-0.35139796
89	0x3ed6a694	0.41923964
90	0xbf3a0861	-0.72669035
91	0xbd878429	-0.066170044
92	0x3ef7b83a	0.4838274
93	0x3e0a182e	0.13485786
94	0xbf23fc73	-0.6405708
95	0x3e22ac97	0.1588615
96	0x3eb8ae9a	0.3607071
97	0xbd91ae64	-0.071133405
98	0xbf2aefc6	-0.66772115
99	0x3e4100f6	0.18848023
100	0xbe8da3bb	-0.2766398
101	0x3e65213d	0.2237596
102	0x3d4c9ae3	0.0499524
103	0xbea4c749	-0.32183293
104	0x3e98286e	0.29718345
105	0xbdaccdec	-0.08437714
106	0x3ddc4b47	0.107565455
107	0xbb92cf94	-0.0044803116
108	0xbeb6cf92	-0.3570524
109	0x3ecbf354	0.39834082
110	0x3c217682	0.009854915
111	0x3e5b697a	0.21426955
112	0x3e0b4ad1	0.13602759
113	0x3defcf37	0.11709445
114	0xbf3e6161	-0.7436734
115	0x3ea4f9a4	0.3222171
116	0xbf73fc93	-0.9530727
117	0x3f0b35dc	0.5437906
118	0xbe8e4357	-0.2778575
119	0x3eb00e2f	0.3438582
120	0xbe104fc4	-0.14092928
121	0xbc8846bb	-0.01663529
122	0x3ead091a	0.33796006
123	0xbe104e63	-0.14092402
124	0x3f0c7262	0.54862034
125	0x3d80f659	0.06296987
126	0x3e718993	0.23587637
127	0xbe97eaf9	-0.29671457
128	0x3e0bd308	0.13654721
129	0xbe8b71f4	-0.27235377
130	0xbf674dff	-0.9035339
131	0xbe825b25	-0.25460163
132	0x3ed5591e	0.41669554
133	0xbe0232ee	-0.1271474
134	0xbf19eec7	-0.6012997
135	0x3d4ea96a	0.050454535
136	0xbf0ba6f3	-0.5455162
137	0xbe8a6811	-0.2703252
138	0x3e87ab1d	0.26497737
139	0x3f3eec1e	0.74579036
140	0xbc3b97a9	-0.011449733
141	0x3ec7492b	0.3892301
142	0xbe6dbd9a	-0.23216859
143	0xbf035eb5	-0.51316386
144	0x3ec21a3d	0.37910643
145	0xbf40ffbf	-0.7539024
146	0x3e3dabc4	0.18522555
147	0x3d80409d	0.06262324
148	0xbf65717f	-0.89626306
149	0x3f1cb37b	0.61211365
150	0x3eb7bcd3	0.3588625
151	0xbf2c6b91	-0.67351633
152	0x3e8870f0	0.26648664
153	0x3ead3aae	0.33833832
154	0x3ea6f49b	0.32608494
155	0xbe2e92c2	-0.17048171
156	0xbd532a36	-0.051553927
157	0x3e68827e	0.22706029
158	0x3e7a6dc5	0.24455936
159	0x3f007ae9	0.50187546
160	0xbde25b0d	-0.11052523
161	0x3eefea45	0.4685842
162	0x3ec3d32a	0.38247043
163	0xbefea3bc	-0.49734294
164	0xbf3318f1	-0.6995993
165	0xbeeca29b	-0.46217808
166	0xbd5b24b8	-0.053501815
167	0x3e3fddd2	0.18736961
168	0xbea804ea	-0.3281625
169	0xbf02188e	-0.5081872
170	0xbc2db923	-0.010603222
171	0x3daf8fd6	0.085723564
172	0xbd5b96b6	-0.053610526
173	0xbf76d94a	-0.96425307
174	0x3dd71393	0.1050178
175	0xbf13d83c	-0.5775182
176	0x3ddd1f61	0.10797001
177	0xbe97ceeb	-0.29650053
178	0x3e7c78df	0.24655484
179	0xbe1ce41f	-0.15321396
180	0x3f1c152b	0.609698
181	0xbf6247b0	-0.88390636
182	0x3e8ef36a	0.27920085
183	0xbe2fa7ea	-0.17153898
184	0x3f40e2d1	0.75346094
185	0xbd66628e	-0.056246333
186	0xbd208836	-0.0391924
187	0x3e999996	0.2999999
188	0xbec4c304	-0.38430035
189	0x3e0ee8b9	0.13955964
190	0xbe00ec43	-0.12590127
191	0x3e39c2c4	0.18140703
192	0x3ea98e45	0.33116356
193	0x3eb3958b	0.3507503
194	0x3d84118e	0.06448661
195	0xbf012906	-0.5045322
196	0x3e02fd13	0.12791853
197	0xbde54704	-0.11195186
198	0xbdff7a11	-0.12474454
199	0xbd352be1	-0.0442313
200	0xbec72aa3	-0.38899717
201	0x3e7cf0b9	0.24701203
202	0x3f6a6ff3	0.9157707
203	0xbe76c84c	-0.24099845
204	0xbefc7dc3	-0.493147
205	0xbdd93245	-0.10605291
206	0x3df26812	0.11836256
207	0x3f0363f3	0.51324385
208	0xbe6cf2a4	-0.23139435
209	0xbdc487ac	-0.0959619
210	0xbea05bbc	-0.31319988
211	0xbf535760	-0.825552
212	0xbf05b7c9	-0.5223356
213	0x3d29eff4	0.041488603
214	0xbdafb2cc	-0.08579025
215	0xbf63a86b	-0.8892886
216	0xbfb91c6b	-1.4461797
217	0x3d8c1d7b	0.068415605
218	0xbe374d57	-0.17900597
219	0x3e387c43	0.18016152
220	0x3f09af6e	0.5378331
221	0xbcb5eb93	-0.022207057
222	0x3d2b00f2	0.04174895
223	0xbf10572f	-0.5638303
224	0xbf525896	-0.8216642
225	0xbeb8207e	-0.3596229
226	0xbf1b69e6	-0.60708463
227	0x3e9d32f5	0.3070294
228	0xbf014ea8	-0.50510645
229	0x3e6d101d	0.23150678
230	0xbe65f4cf	-0.22456668
231	0xbdb2da73	-0.08733072
232	0x3eac6b0c	0.3367542
233	0x3f6e9da6	0.932093
234	0x3e460550	0.19337964
235	0xbf31763d	-0.6932104
236	0x3da6ff1c	0.08154127
237	0x3e0b768b	0.1361944
238	0x3e808d6d	0.251079
239	0xbdf11e06	-0.11773305
240	0x3e753034	0.2394417
241	0xbe2c3d5a	-0.16820279
242	0xbe49b5e8	-0.19698298
243	0xbe7e7468	-0.24849093
244	0x3eb328eb	0.34992155
245	0xbe10bf3c	-0.1413545
246	0xbf92ccfa	-1.1468804
247	0xbe5b8aed	-0.21439715
248	0xbe7abe68	-0.24486697
249	0xbfa6aa88	-1.3020792
250	0x3d801811	0.0625459
251	0xbedaed4b	-0.42759165
252	0xbe242cf4	-0.16032773
253	0xbd9b165d	-0.07572625
254	0xbebff87f	-0.37494275
255	0x3b36c385	0.0027887535
