FR_wind_model.pth (torch, 250791 bytes, 16 tensors)

conv1.weight f4 [64, 6, 3]
00000000: d48d 4bbe 5226 773e d6af 6d3d 18c3 15bd
00000010: a465 bfbe 0887 63be d55c 243d 2570 7d3e
00000020: 6755 1cbe 7929 e8bd 5fec 313e 6547 1c3d
00000030: 0fa8 55be c188 903f 2163 363e 18c3 f7bd
00000040: d9ad 5bbe 1abd c83d 6191 9d3b 3ffb 7ebe
00000050: 1488 3a3e 8540 89bd c930 a33f 84ed 5f3e
00000060: 9233 6abe df0c 0a3e 9b3c 0b3e efb3 573e
00000070: 8f08 88bd 7c0c 233e c715 34be 5717 67be
00000080: 3789 c6bd 6476 7fbd 88a5 c83e ad26 a93d
00000090: b49e 2e3c ca69 00be c750 073d b338 f3bd
000000a0: aeae ab3e ac8e c83d 4c3f 4bbe 551f 903e
000000b0: 14b7 023e 6b7a 4dbe 9bea 753e 52f0 b23d
000000c0: a8e4 453e 9c66 9c3f 1d33 ce3d 840c 55be
000000d0: 996f 0d3e 6718 613e f473 6e3e cf22 943d
000000e0: fad2 39be cf45 a63d 36dc 14bf 47ff 483d
000000f0: 9c47 12bd d127 2fbf 7dd4 48be 8674 8b3c
00000100: 4de2 fb3e 7d55 d8bd 64e7 64be 017f 1dbe
00000110: 3052 ae3d cbd9 37bd 5493 a0be 5007 c6bc
00000120: dedd b4bd 831b 033f 4584 cebd 302b e3bd
00000130: 85d3 2b3e a629 1dbe d15b 1dbd 95f5 743e
00000140: 36de 5c3e f900 d03c bbdd b7bd 42fa 85bd
00000150: b546 ea3d c6a9 ce3e b0da 2e3c 9717 42be
00000160: 3398 92bf 2c73 a73c 0d8d 4fbe d98c 233f
00000170: ee04 9e3c 7c96 cb3c cf17 253f 0cb7 ac3d
00000180: a0d7 f53d 09a3 f83c 3da8 56be f4d3 f93d
00000190: ec44 f4be ebdc 623e 8ecb 06be 3800 a53e
000001a0: 0333 023c 9887 ef3b cfa4 acbd 9a54 27be
000001b0: cd49 0cbe 7ac2 28be 1d7c ae3d fbb1 f23d
000001c0: 453e 573f a9b1 5ebe a194 68bd db42 e63d
000001d0: 231c 0ebe 0bb0 2bbe b789 013f d6a4 cc3d
000001e0: 0ec6 d4bd 6b55 48be 7a79 58be 723a cd3c
000001f0: 3b0e f53e fcba 42be 5e69 b93c 914f 493f
00000200: 3301 373e 6ab8 163e 535b d03e c29b d2bd
00000210: 0af5 5d3d 1392 023f 8fee f3bd f74a 223e
00000220: e889 fe3d 6e3f 6ebe c933 3dbe 8285 803d
00000230: d929 60be 5a64 513e 56e8 3abe e032 15bd
00000240: 81c6 5b3e e15a 91be 4899 2a3e cbc3 50be
00000250: ae4e dfbc 78a4 01be aba4 013e 77c7 583e
00000260: 47f1 513e 0fe9 63be f60d f13b 995a 503d
00000270: 41dc e03d baf1 273f e57a b7bd 4808 473e
00000280: 642d 5abf a323 363e a7a6 6abe d988 ac3e
00000290: 499d 6c3e 3fde 35be b353 0a3f 3c6a 773d
000002a0: 8fea c5b9 1b6d a6be d8a3 bc3d 4734 6a3e
000002b0: 12ab 353e c7c2 683e eac1 b13d 5354 153f
000002c0: 4dbc 36bd c0a0 ca3d 7242 d0be eb2d 053d
000002d0: a4b3 38bd 69bf ca3e 5225 123e 0b71 0f3e
000002e0: 3cfc 2bbe c530 63bd b600 0abe a8ac f13d
000002f0: ee64 383e 55b0 17be 68f2 e0bd 29a6 37be
00000300: 738e 68be 5204 8b3f 54bf 3d3e d258 a23d
00000310: bc4d 6d3e fab1 23bc ff8e 3fbe ccc2 2dbf
00000320: 3206 6abe 281c d23d c585 40bf 50e6 55be
00000330: 459b 2f3e af47 53be de26 613c c289 61be
00000340: 21d9 10be 46e1 44bc 7c7c 49be a7f9 97bd
00000350: d128 b3bd c287 05be bfb4 1dbd af41 c7bd
00000360: 69bd 21be a8de 9fbd 729c 5d3d 9921 9d3d
00000370: 416a 853e 4654 47be b0fc 503e d38b f33e
00000380: e9e7 46bd 08ec b83d 3caa 3abf f565 203e
00000390: 9e39 67bd c3a7 bcbd 99ec 41be d163 1fbe
000003a0: a97f 0fbf 7928 db3d 67bc f4bd 9b3b 423f
000003b0: ef95 ec3d 7575 6bbe b1a6 2f3e 3eb7 653d
000003c0: 7296 b83d 9e5f 4cbf 513e 6e3c 7abb 003e
000003d0: bceb d5bd 3a33 263e 1b9d 32be 34dc d93c
000003e0: 8113 613e 2d66 d0bd 5474 3f3e 315b 7c3d
000003f0: ffb0 14be 656e 283e bea3 ed3d 4687 88bd
-0.19878322 0.24135712 0.05802902 -0.03656301 -0.37382233 -0.22219479 0.040127594 0.24749811
-0.15266953 -0.11336035 0.17375325 0.038154025 -0.2086489 1.1291734 0.17811252 -0.12097758
-0.21453036 0.09801693 0.0048085903 -0.2490053 0.18215972 -0.06701759 1.2749263 0.21867949
-0.22871235 0.13481472 0.13597338 0.21064733 -0.066422574 0.15922731 -0.17586432 -0.22567497
-0.096941404 -0.062368765 0.3918879 0.0825933 0.010657955 -0.12540355 0.03303602 -0.11876049
0.33531708 0.097928375 -0.19848365 0.28148904 0.12765151 -0.2006623 0.24015276 0.08737244
0.19325507 1.2218814 0.10068343 -0.20805556 0.13812102 0.21981965 0.2328642 0.07233202
-0.18146887 0.08118784 -0.58148515 0.049071576 -0.035712823 -0.6842013 -0.19612308 0.017023336
0.4919609 -0.105631806 -0.22353894 -0.1538048 0.0851177 -0.044885438 -0.31362402 -0.024173409
-0.0883138 0.51213855 -0.10083822 -0.11092222 0.16779907 -0.15347919 -0.03841764 0.23921807
0.21569142 0.025391089 -0.089778386 -0.065418735 0.114392675 0.40363902 0.010672256 -0.18954311
-1.1452698 0.02044066 -0.2026865 0.6388679 0.01928946 0.02485203 0.64489454 0.08433351
0.12004018 0.030351179 -0.20962615 0.1219863 -0.47708833 0.22154586 -0.13163587 0.3222673
0.007946732 0.007309865 -0.08429872 -0.16340867 -0.13700028 -0.16480437 0.085197665 0.11850353
0.8407939 -0.2174746 -0.05678237 0.112432204 -0.13877921 -0.16766374 0.5060076 0.099923775
-0.103893384 -0.19563834 -0.2114009 0.025052283 0.4786242 -0.19016641 0.02263325 0.78637034
0.17871551 0.14718786 0.40694675 -0.10283615 0.054188766 0.5100414 -0.11910736 0.1584891
0.12428647 -0.23266384 -0.18476786 0.062754646 -0.21890964 0.20448437 -0.18252692 -0.03642547
0.21462442 -0.28389648 0.16660035 -0.20387189 -0.027259197 -0.12660396 0.12660472 0.2116984
0.20502196 -0.22256874 0.0073564006 0.05086765 0.1097951 0.6560322 -0.08958987 0.19436753
-0.8522551 0.17787032 -0.22915135 0.33698156 0.23106875 -0.17760561 0.54033965 0.060404047
-0.00037749528 -0.32505116 0.09210938 0.22871505 0.1774104 0.22730552 0.08679564 0.58331794
-0.04461317 0.09893942 -0.40675694 0.032514494 -0.045093194 0.3959916 0.14272049 0.14007966
-0.16795439 -0.055466432 -0.13476834 0.1180051 0.18007252 -0.14813359 -0.10983735 -0.17934479
-0.2271059 1.0860693 0.18530017 0.079270974 0.23174185 -0.009991163 -0.18706892 -0.6787536
-0.22853926 0.10259277 -0.75204116 -0.20888638 0.17149074 -0.20632814 0.013742177 -0.22025207
-0.14145328 -0.0120166 -0.19676393 -0.07420664 -0.087480195 -0.13040069 -0.03850245 -0.09729325
-0.1579491 -0.0780614 0.054104276 0.07672424 0.26057628 -0.19465742 0.20408893 0.47567615
-0.04856101 0.090293944 -0.7291601 0.15663894 -0.056451432 -0.092116855 -0.18937911 -0.1556542
-0.5605417 0.10701079 -0.119499974 0.758722 0.11552035 -0.22994025 0.17153431 0.056082956
0.0901307 -0.798334 0.014541225 0.12571517 -0.104453534 0.16230479 -0.17442743 0.026594259
0.21980096 -0.101757385 0.1869672 0.061610404 -0.14520644 0.16448362 0.11603497 -0.06666426

conv1.bias f4 [64]
00000000: f115 763e 208a a33e adff ac3c 809e 40b9
00000010: d072 9abe 9a05 ffbd 11e2 1c3e 27f1 f7bc
00000020: ccef ccbd 64df 0fbe a038 89bc aed9 82be
00000030: 8f1a 373c b82f 823d 2b35 c03b 3c4b 5b3e
00000040: ded6 833d 516d 973e 80b1 73be 0138 ab3e
00000050: 919c 4ebe fa25 133e e2ab 25be d745 8cbe
00000060: a985 2c3e ca00 20be a8e6 ab3e 4c1a d23d
00000070: ef26 903d 8b2b 65be d5ea 0d3e 1ad6 433c
00000080: 292c 843e 8280 1bbe f6df 17be adc1 a13e
00000090: 905b 9bbe 0830 23be 1eb0 aa3e aa10 543d
000000a0: 82d8 203d e307 6f3e 7ee5 66be a982 90be
000000b0: 9272 633d 851e 473e 9a27 10bd 4e85 b63d
000000c0: 1f02 c4be 44df 01bd 8dbc ca3d d331 d1bc
000000d0: b8e2 783d 96ea c93d 77c1 1dbe e0a8 cbbd
000000e0: 1f61 aebd 5ec4 953d 46b4 74be 5901 d73d
000000f0: 841f eebd c7fc a53e afdf 73be 404c 463e
0.24031807 0.3194132 0.02111801 -0.00018369593 -0.3016572 -0.1245224 0.15320612 -0.030266358
-0.10006675 -0.1405006 -0.016750634 -0.255567 0.011175766 0.06356758 0.005865713 0.21415418
0.06437467 0.2957559 -0.2379818 0.33441165 -0.20176913 0.14369956 -0.1617885 -0.27397034
0.16847862 -0.15625301 0.33574414 0.10258922 0.07038676 -0.22379892 0.13859113 0.011952901
0.25814942 -0.1518574 -0.14831528 0.31593075 -0.30343294 -0.15936291 0.33337492 0.051773705
0.039268978 0.23342852 -0.22548482 -0.28224686 0.055529185 0.19445236 -0.035194017 0.089121446
-0.38282868 -0.031707063 0.098992445 -0.025536453 0.06076309 0.09859197 -0.15405832 -0.0994432
-0.08514618 0.07312845 -0.23896894 0.10498304 -0.11627105 0.32419416 -0.23815797 0.19365025

batchnorm1.weight f4 [64]
00000000: 0d7c 9e3f 2cc2 bb3f e646 9c3f f131 8d3f
00000010: f477 963f 2d55 a93f 782b 823f d682 773f
00000020: 0819 813f 8944 9c3f 7204 923f 2377 4b3f
00000030: 519e 1e3f 401b 853f 97ac 393f 93bc b23f
00000040: a5bd 893f 9b82 953f b53e a03f 383d 863f
00000050: 4645 943f f533 a23f 7ec9 713f 21ef 553f
00000060: 43a3 973f 2dc5 b23f ffe9 9d3f 6531 6f3f
00000070: 7c6d 273f 2b78 b23f 7214 8f3f 44db 843f
00000080: 8aef 693f 1278 ae3f 6982 8f3f d784 893f
00000090: 7a06 8d3f 2e47 a63f 80af 5f3f 90a8 9d3f
000000a0: 5dd7 803f 6c02 8d3f 8e56 1d3f 4260 753f
000000b0: e0b4 c73f aeab 083f 66b4 543f b918 9e3f
000000c0: 4a06 9a3f f392 883f 705f 923f 9cf8 823f
000000d0: 346f 683f 8855 823f db56 2940 33df 3e3f
000000e0: 6424 0b3f 42c8 573f 02e2 a83f 42c7 7d3f
000000f0: 4bc2 ed3f be0f 933f 0891 1c3f 4220 4d3f
1.2381607 1.4668632 1.2209136 1.1030866 1.1755357 1.3229119 1.0169516 0.96684015
1.0085764 1.2208415 1.1407607 0.79478663 0.6196032 1.0398941 0.72528976 1.3963798
1.0761 1.1680483 1.2519137 1.0487432 1.158364 1.2672106 0.9444808 0.83568007
1.1846699 1.3966423 1.2337035 0.93434745 0.65401435 1.3942922 1.1178114 1.0379415
0.9138113 1.3630393 1.1211673 1.0743665 1.1017601 1.2990472 0.87377167 1.2317066
1.0065724 1.1016364 0.61460197 0.9585 1.5602074 0.5338696 0.83087766 1.2351295
1.2033169 1.0669845 1.1435375 1.023212 0.9079468 1.0182352 2.6459262 0.74559325
0.543524 0.84289944 1.3193972 0.9913217 1.8574919 1.1489179 0.611588 0.80127347

batchnorm1.bias f4 [64]
00000000: 3f33 c2be b5fe e4be eeb8 333d 9877 073c
00000010: 1349 76be a054 cb3d 26ae c3be 5fa0 b93e
00000020: 2613 73be 6937 6fbd 7e87 f2be 8b13 d73d
00000030: 566b 85bd e4f9 9ebe e6c0 513e 49c6 a13d
00000040: 9bbb 0ebc 6335 7cbe f494 81be 7314 abbe
00000050: 4ed7 fdbd 957d c0bd 0214 653b c613 303e
00000060: 7d4e a5be a91f 6ebe 3e0d 0fbd a325 2abd
00000070: 1f2d 713c b877 ae3d a4b7 20bd 2ba6 d5bd
00000080: bb5f 91bc 3b23 f8bb 26aa a3be 1721 6bbe
00000090: 10da 70be 4c3f 86be 0d85 ccbb bd6e b33d
000000a0: 2055 1cbd f5ec 6bbe 03c6 bd3d 76e1 67be
000000b0: ceed 143e 4a23 1e3e fee2 bbbe a98e fd3b
000000c0: 924f 443c 7a11 a1bc bb3e 4ebd b58c bdbd
000000d0: 42b9 88bd ce39 72bd 0a31 2bbf fca5 86bd
000000e0: 56d0 823e 33a1 1c3d b71f 9ebe 6067 ae3d
000000f0: fc3b 13bd 5c63 82be 4398 82be 63c9 9cbc
-0.37929723 -0.44725576 0.043877535 0.0082682595 -0.24051313 0.0992825 -0.38218802 0.36255166
-0.23737773 -0.058402453 -0.47368997 0.105017744 -0.06514613 -0.31050026 0.20483741 0.07899148
-0.008711721 -0.2462974 -0.25308955 -0.3341404 -0.12394582 -0.09398953 0.0034954553 0.17195043
-0.32286444 -0.23254265 -0.034924738 -0.0415398 0.01472023 0.08518928 -0.039237633 -0.10432085
-0.017745843 -0.007572559 -0.3196575 -0.22961842 -0.23520684 -0.26220167 -0.006241447 0.08761356
-0.03816712 -0.2303961 0.09266283 -0.226446 0.1454384 0.15443149 -0.3669662 0.0077379537
0.011981862 -0.019661654 -0.050352793 -0.09255353 -0.0667596 -0.059137158 -0.668717 -0.06574628
0.25549573 0.03823967 -0.30883572 0.08515811 -0.035945877 -0.2546643 -0.2550679 -0.019138997

batchnorm1.running_mean f4 [64]
00000000: ec7c 7d3e 1fd6 a63e 6f87 1c3d 4e00 463c
00000010: 19bf a0be d4e0 ebbd bed5 263e 1eab 1cbd
00000020: 1cf0 debd e502 f3bd f3b6 1e3a 2f20 86be
00000030: 8d51 76bc 524c c13d f581 2d3c 0bc6 7b3e
00000040: e141 bc3d 87c1 963e 98a8 6dbe bb3b a53e
00000050: 8ad7 4bbe 088e 0f3e 24b8 14be dd60 92be
00000060: 4e10 213e d55b 17be ac2f a43e 2942 fc3d
00000070: d97b 823d d5d9 66be 130a 203e 5f58 833c
00000080: e24b 723e 3c77 0fbe ae80 12be 3a2f ad3e
00000090: 3a98 90be f242 21be 233e a53e 7e3b 933d
000000a0: 90dd 1f3d fa39 843e e418 6abe 0c37 9ebe
000000b0: 659b 8f3d 7886 263e 6c5d f8bc 5ad7 e43d
000000c0: 7ad0 c5be 21b7 27bd a560 b33d 2ab2 ac3a
000000d0: 5109 af3d b84b c73d 9995 52be 3e0a edbd
000000e0: 6560 e0bd 5af2 533d 740f 78be b1d2 9e3d
000000f0: 29d3 ccbd 6e35 ac3e d162 69be 02a5 3c3e
0.24754685 0.32585236 0.038215097 0.012085034 -0.31395796 -0.11517492 0.16292474 -0.038249128
-0.10885641 -0.118657865 0.0006054483 -0.2619643 -0.015034092 0.09438385 0.010590066 0.24587266
0.09192253 0.29444525 -0.23208845 0.32272133 -0.1990644 0.14019024 -0.14523369 -0.28589526
0.15728876 -0.14781125 0.3206762 0.123173065 0.06371278 -0.22544034 0.15628843 0.01603335
0.2366176 -0.14010328 -0.143069 0.33825094 -0.2824114 -0.15748194 0.3227397 0.071890816
0.039029658 0.25825483 -0.22861058 -0.30901372 0.07012061 0.16262233 -0.030317985 0.111738876
-0.38635617 -0.04094613 0.08758668 0.0013175656 0.08546699 0.09731239 -0.2056488 -0.11574219
-0.10955886 0.051744796 -0.24224645 0.0775503 -0.10001213 0.33634514 -0.22791602 0.1842232

batchnorm1.running_var f4 [64]
00000000: 23d3 c13f e32b d93f 4806 bc3f e207 693f
00000010: de08 943f 3cab 1b3f 7910 863f ebe0 0e3f
00000020: 652e a43f b731 7f3f c3d2 d23f da63 043f
00000030: 3132 a33f 7754 b13f 8c66 073f fb55 733f
00000040: cc7e bc3f 73df 1340 2e88 813f 6b94 b33f
00000050: 5e44 5f3f 88f5 7a3f ceb6 bf3f b95c 5c3f
00000060: 4534 883f f852 853f f4bc a13f bde3 a43f
00000070: 37c1 7f3f c48f c43f 55c4 993f 3a5a 203f
00000080: 25d3 583f 12fe 6d3f 72ea a83f 7e1b 3e3f
00000090: 73c1 d83f 027e 553f 717b aa3f 5f53 933f
000000a0: 5d01 963f b2f7 b83f c91f 563f f411 653f
000000b0: 073a cd3f a7d5 993f 7458 4c3f b496 4f3f
000000c0: fc54 383f d1c5 803f eb4b 4140 9cc3 8b3f
000000d0: 7ef4 893f 2742 723f 3168 4841 b231 903f
000000e0: c69f 4a3f df08 853f 00fd b93f 2241 dd3f
000000f0: 052f 2f3f 36e0 903f 4d51 713f 90e5 8a3f
1.5142559 1.6966518 1.4689417 0.91027653 1.1565206 0.6080816 1.0473777 0.5581195
1.2826658 0.99685234 1.6470569 0.5171486 1.2749692 1.3853902 0.5289085 0.9505307
1.4726195 2.3105133 1.0119684 1.4029669 0.87213695 0.980309 1.4977663 0.86078984
1.0640951 1.0415945 1.2635789 1.2882 0.999042 1.5356374 1.2013041 0.62637675
0.8469718 0.92965806 1.3196547 0.742607 1.6934036 0.833954 1.3318921 1.1509818
1.1719166 1.4450591 0.8364225 0.8948052 1.6033334 1.2018327 0.7982247 0.8108933
0.72004676 1.0060369 3.0202587 1.091907 1.0777738 0.9463219 12.525437 1.1265166
0.79150045 1.0393332 1.4530334 1.7285502 0.6843112 1.1318424 0.9426468 1.0851307

conv2.weight f4 [128, 64, 3]
00000000: 4f0a 0abc 0a6f cc3e 70ce 0abd 739a 81bd
00000010: e5e8 a1be ded5 f83b c175 75bd 7f50 c3bc
00000020: 778b 8abd 782e f2bc b97b 013f b2fb 15bd
00000030: cc80 74bd 4168 a3bd 8150 0b3d 30ab 923d
00000040: aa45 b03e a5df 1e3d 2947 0dbd a9a3 1fbe
00000050: 0c5c 423c 5738 333d 04b7 b2be 75f8 22bd
00000060: 7d6d 24bc 4697 d2be 879e 3c3d ac73 663b
00000070: 6431 ee3d 880a abbb a12d 963c 3c3d ea3e
00000080: a92c 2d3d 2f3e 803d ed1d 7f3e 4e5b 34bd
00000090: 03bb 5d3d 11be 07bf 66f3 ef3c 5537 adbc
000000a0: 9b7b be3e e121 03bd f04e 813c c3aa 5bbf
000000b0: 7629 63bb 23fd 45bd 011e b73e 18b5 9d3c
000000c0: 6038 86bd e44e 523e 1e81 853d 50a1 48bd
000000d0: 804a b43e 084f 223d ca4d 70bc 9ae4 7bbf
000000e0: ade6 39bd 95d0 82bd f3d1 9e3c 1bee 843d
000000f0: 38d0 043d cd08 383e 2e8b ceba 44e8 8cbd
00000100: cfd3 bd3d faaa 8d3b 8b03 3c3d e810 3c3e
00000110: 980f d43c e541 ea3c cc6d 2ebf 4f33 76bc
00000120: 5115 59bc 06ff a43e 9f6c 243c 9f51 85bd
00000130: 3093 f33e 7fa0 5c3d 0a99 543c 2e59 b5be
00000140: 675b ccbc 9e28 9dbc 0bd4 11bf 8c9b b63c
00000150: 2292 253d 2e2f 9ebc 1406 aeba 7da7 66bb
00000160: fc10 8a3e e9e5 ad3c 65e2 403d 24b6 d7bc
00000170: 8359 e83a 2e12 0ebb 9045 c3bc 5829 72bc
00000180: aa91 64bd 20f1 4d3e c0b6 32bd 5969 e1bc
00000190: 4698 6c3f 073e 5fbd 3cb5 71bd 90c4 9c3e
000001a0: 7bf5 af3c f126 8e3d cd38 593f 186b 363d
000001b0: 6929 053d 2eb7 de3e dc41 04bd ada6 9cbb
000001c0: 0603 873d b948 78bd 34d2 4ebd a4be 383f
000001d0: edd0 233d 64f3 0ebd 7cec fa3e 2a4e e9bc
000001e0: 20c4 85bc 41d3 2fbf 73b0 7abd 2fdc dd3c
000001f0: f80a 24bf 5056 553d 2d59 66bd 5eb6 c13e
00000200: 0fc0 96bc 258d 7bbc a3a7 b0be bdbe 5c3d
00000210: 54fd 06bd 1467 b7be eb71 7cbc 5ce7 443d
00000220: 1461 4a3e 8b4a 10bd 84a5 f8bb bb27 83bd
00000230: 867d 84bb ae38 333d f588 c53d baf5 703c
00000240: c37b 173d 0204 683e 4c51 7c3d 7a8a 043c
00000250: a87d 9abf 41fb 7b3d 27fb 1e3b befd 333d
00000260: 886f 5dbc ee02 edbc e179 843e f530 09bd
00000270: 4d91 4abd c738 94be 5fd6 a7bc 9e63 823d
00000280: 3b7c f23c 0343 9cbc 2525 06bd 10cb 8d3e
00000290: a892 703d db82 1ebd bde3 603d 0e1a 0e3d
000002a0: 5132 aa39 9240 583e 84c2 00bd 34ca 77bd
000002b0: 0ef5 123f 957e 523d 40e1 29bd d76a 2bbf
000002c0: 6d22 01bd 2223 53bd 496e 493d 9b90 45bc
000002d0: 90fb 333d c2bc e53e dff1 233d 9fcf 8a3d
000002e0: e4f9 6d3e fb3e 1b3d bb04 433d 253f 62bd
000002f0: 6a9e b7ba a20b 45bd 36bd a2be 3266 6cbd
00000300: ab78 813b 862c 1fbf d2e6 8f3d 7590 d93c
00000310: 51d3 9ebe 5bba c73b 9824 5c3d 52b4 4d3e
00000320: 2f0a 22bb ba98 64bd 96c3 7a3e 63a6 b13c
00000330: d921 3ebd f38e d4be e0f7 66bd 40c8 70bd
00000340: f3c4 96be 6cbb cbbc 8abe f83c d090 c43d
00000350: 3017 5e3d 1d12 2dbd fd5d 3bbe 64b0 28bc
00000360: 06a2 2c3d 6a70 52bf 3080 2ebc ff04 af3c
00000370: 475d 993d 924b 26bc 2d5d 09bd a7a4 c03d
00000380: 0479 a33c 6ab6 0a3d f224 a6be 93f1 6f3d
00000390: 21f0 08bb 368d 61bf a160 51bd e9cd 383d
000003a0: 65c0 8ebd f5e4 40bd 81ac 88bd ac63 bd3e
000003b0: 2432 57bd 5899 51bc caf6 2f3f 9f81 d4bc
000003c0: fdf9 2dbd 064d ef3e c66d 203c 2d53 31bc
000003d0: 6bac c83e 6665 813b 9ea5 23bc 137d 11be
000003e0: b253 093d 8cd0 52bd 13db 773e c3ee 573c
000003f0: 417e 903b 4550 82bf 0dcd 9bbc cb9d 8e3d
-0.008425309 0.39928466 -0.03388828 -0.06328287 -0.31622997 0.0075938543 -0.059926752 -0.023842094
-0.06764882 -0.029563174 0.5057941 -0.03661699 -0.059693143 -0.07978869 0.03401232 0.07161558
0.3442815 0.038787503 -0.03449169 -0.15589775 0.011862766 0.0437549 -0.34905255 -0.03978773
-0.01003587 -0.41131037 0.04604962 0.003516416 0.11630514 -0.0052197613 0.018332304 0.45749843
0.04227892 0.062618606 0.2491376 -0.044032387 0.054133426 -0.53024393 0.029290866 -0.021144548
0.37203678 -0.03201473 0.01578471 -0.85807437 -0.0034662164 -0.048337113 0.3576508 0.019251391
-0.065537214 0.20537907 0.06518768 -0.048981965 0.3521309 0.03962615 -0.014666984 -0.98395693
-0.045386005 -0.0638744 0.019387221 0.064907275 0.032425135 0.17972107 -0.0015758032 -0.06880239
0.09268915 0.0043233605 0.045901816 0.18365824 0.025886342 0.028595874 -0.68136287 -0.015026881
-0.013249711 0.32225817 0.010035663 -0.065097086 0.47573233 0.053864 0.0129759405 -0.354196
-0.024945928 -0.019184407 -0.56964177 0.022290967 0.040422566 -0.019309606 -0.0013276958 -0.0035195046
0.26966083 0.021227794 0.047090907 -0.026331969 0.0017726872 -0.0021678316 -0.02383688 -0.014780365
-0.05580298 0.20111513 -0.043631315 -0.027516054 0.9241985 -0.054502513 -0.05901073 0.30618715
0.021479359 0.06941021 0.84852296 0.044535726 0.032510195 0.4349913 -0.03228937 -0.0047806115
0.065923735 -0.06061623 -0.050493434 0.72165895 0.03999417 -0.034900084 0.49008548 -0.028479654
-0.016328871 -0.6868172 -0.06120343 0.02708253 -0.64079237 0.052084267 -0.05623739 0.37834448
-0.018402128 -0.015353476 -0.34502897 0.05389284 -0.032956436 -0.3582083 -0.01540802 0.048072204
0.19763595 -0.03522734 -0.0075880904 -0.06404062 -0.004043284 0.043755226 0.09645263 0.014707023
0.036983263 0.22657779 0.06160097 0.008089656 -1.2069597 0.06151891 0.0024258585 0.04394316
-0.013515361 -0.028932061 0.25874236 -0.033493955 -0.049454976 -0.28949568 -0.020487962 0.06366657
0.029600253 -0.019074922 -0.032750268 0.27693987 0.058733612 -0.038699012 0.05490469 0.034692816
0.00032462415 0.21118382 -0.031435505 -0.06049557 0.57405174 0.05139025 -0.04147458 -0.669599
-0.03152697 -0.051547177 0.04917744 -0.012058402 0.04394108 0.44870573 0.040025588 0.06777882
0.23239857 0.03790186 0.047611933 -0.055236 -0.0014009003 -0.048106797 -0.3178498 -0.05771465
0.0039511523 -0.6217731 0.07026447 0.02655814 -0.31020597 0.0060952133 0.053745836 0.20088318
-0.0024725308 -0.055809714 0.24488673 0.021685785 -0.046419 -0.41515312 -0.056388736 -0.058784723
-0.29447135 -0.024869643 0.030364294 0.09597933 0.054221332 -0.042253602 -0.18297572 -0.010295961
0.042146705 -0.8220278 -0.0106506795 0.021364687 0.07488494 -0.010149853 -0.033536125 0.09406405
0.019955166 0.03386537 -0.32450062 0.058579993 -0.002089508 -0.88106096 -0.051117543 0.045118246
-0.0697029 -0.04709335 -0.066735275 0.36990106 -0.052538052 -0.012792908 0.68735945 -0.025940714
-0.042474736 0.46738452 0.009791797 -0.010823053 0.39194044 0.003948855 -0.009988217 -0.14207868
0.033527084 -0.051468417 0.24204664 0.013179484 0.004409582 -1.0180746 -0.019018674 0.0696369

conv2.bias f4 [128]
00000000: be24 8abd e0a5 673d 8b47 f8bc 0cf9 c3bd
00000010: f0e2 d0bc 87b5 34bd 81e1 e13c ba4e ae3d
00000020: 266b 46bd 4b5b eb3c 1118 00be df87 4c3d
00000030: 9744 623d 74e4 023e c7c5 29bc 0966 febc
00000040: 4692 6ebd 63e0 35bd 7ca2 60bd 3c96 b23c
00000050: 1ace 1fbc 8304 c7bd 18fa 0fbd f581 79bc
00000060: 0e30 383c 12a3 a4bd ddf1 4ebd 3ede 4abc
00000070: 533c 78bd ddf5 fe3c b155 84bd c9a6 de3b
00000080: 979a 8dbd 7cb4 2abe f306 c83c 536e 0ebc
00000090: 55c9 243d 4a89 b03d 5896 e3bd 55c2 533d
000000a0: 6d8c 9aba 6a41 bd3d ecb1 df3d f0d9 b73d
000000b0: be4a 9ebd 3dac 063d b3cd f63b ad5b 723d
000000c0: 64ed 813d 4252 223e 5bd2 f6bc a9b2 b1bd
000000d0: 9443 93bd 4ab2 fcbc 61ed 5cbc 83b7 ca3c
000000e0: 4d04 debd b249 d3bc f01e 66bb a71b aa3d
000000f0: 63a9 fe3c b727 4dbd 7681 a93d 73e4 1b3e
00000100: de57 b43c 58be 4d3d b52a e0bd 76f4 78bd
00000110: 35f0 edbc 2122 2b3c 07cc a83d fa8f 903d
00000120: 8e5b 173c 568d a2bd 82d3 c23d c79e c03d
00000130: 3cdc 5d3d 2d05 eabb d9f6 103d e533 e9bd
00000140: 6a93 b1bd f97c a6bc a02e 6f3d 7b86 2dbe
00000150: b864 78bd 3ff5 a3bd f19e 623b 3a8d 24bd
00000160: ef0e b33d a314 13be 4be4 7abc a9e6 cabc
00000170: e5ee b33d 39d8 243d f99c d33c 61b2 1ebd
00000180: c374 213d 58a9 963d aede c8bd 7d67 c83d
00000190: f0fd 03bd 88c1 cdbd ec0e 883d 9b38 0cbc
000001a0: 791f 8cbd 570b 48bd fcf5 093d aad8 02be
000001b0: cf44 27bd 18f4 603d 3494 953d 14a9 8d3d
000001c0: b9b3 30ba 21b9 72bc 0984 ca3d c7f9 f53c
000001d0: 3c18 923c 345a b33c f5f0 1c3c 617f 93bc
000001e0: a0e2 903b 84a5 d73d 94bb 3ebd 7eee fe3c
000001f0: 894c 85bd d2e3 06bd 0669 ec3c 30db 57bd
-0.06745289 0.056554675 -0.030307552 -0.09568986 -0.025498837 -0.04411843 0.027573349 0.0851111
-0.04844203 0.028730055 -0.1250918 0.049934264 0.055241194 0.1278246 -0.010362095 -0.031054514
-0.058244966 -0.044403445 -0.054842457 0.021800153 -0.009753728 -0.097176574 -0.035150617 -0.015228738
0.011241926 -0.08038916 -0.050523628 -0.012382088 -0.060604405 0.031123096 -0.06461657 0.0067947847
-0.06914251 -0.16670412 0.024417376 -0.0086932955 0.040231068 0.08619936 -0.1111266 0.051699
-0.0011791118 0.09240992 0.10922608 0.08977115 -0.077291 0.032879103 0.0075318455 0.05916946
0.06344107 0.15851691 -0.030129602 -0.08676655 -0.07190624 -0.030846734 -0.01348433 0.024745708
-0.10840664 -0.025791977 -0.0035113655 0.083060555 0.03108663 -0.050086703 0.08276646 0.15223865
0.022014555 0.050230354 -0.10945646 -0.06078001 -0.029045204 0.010445149 0.0824204 0.07058711
0.009238137 -0.07937114 0.09512998 0.094052844 0.05416511 -0.0071417303 0.035391662 -0.11386851
-0.08670695 -0.020323263 0.058394074 -0.16945831 -0.060642928 -0.08005761 0.00345796 -0.040173747
0.08743083 -0.14363341 -0.015313218 -0.02476819 0.087858 0.04024527 0.025831686 -0.038744334
0.039417993 0.073565185 -0.09808098 0.09785364 -0.032224596 -0.10046679 0.06643471 -0.008558418
-0.068419404 -0.04883894 0.033681855 -0.12777963 -0.040837105 0.054920286 0.07303658 0.06917015
-0.0006740648 -0.014814646 0.09888465 0.03002633 0.017833821 0.021893598 0.009578933 -0.018005075
0.004421547 0.105296165 -0.046565607 0.031119581 -0.065087385 -0.03293211 0.028858673 -0.052699268

batchnorm2.weight f4 [128]
00000000: 4e7e bc3f 1844 8a3f c57b 8e3f 6ee2 0f3f
00000010: 00b2 423f 0538 7e3f bc4e 503f 810c 7c3f
00000020: 3d8e 943f d80b 8c3f f460 a63f dfbc 883f
00000030: 1ee1 8a3f d877 9f3f 96af 6f3f 42e4 ac3f
00000040: d1cf ac3f 14fd 5a3f 323a b93f cd03 723f
00000050: ca12 8a3f 175f 9f3f dbbb 573f 21b0 633f
00000060: 3747 9e3f 78e2 7e3f 5d17 b83f 6f1f 4d3f
00000070: ec9e 803f e4aa 683f f1d1 903f dcb4 a43f
00000080: b3db 9f3f a9e8 9c3f fcc1 773f bab3 ba3f
00000090: 3e74 5d3f ed34 6a3f e799 2f3f 304c 533f
000000a0: 7875 6f3f 0cc3 a83f 4ada 873f 3ef5 833f
000000b0: 2aa5 6d3f 6d8f 9d3f 86fd a13f 12b1 933f
000000c0: 7230 b23f 6900 683f 6376 ad3f ecb9 4d3f
000000d0: 53db 5e3f 9dd0 753f 1c2a a23f 5809 2e3f
000000e0: 8a26 833f c310 883f 1855 623f 7799 8e3f
000000f0: 75dd a63f 6121 3d3f 4a6e 863f dae8 9a3f
00000100: dc89 4b3f baae 743f 4909 913f c6db 883f
00000110: 342a 7f3f 151b 833f 6e26 7e3f 6297 723f
00000120: b775 773f 2e9d 933f 8780 b63f 1ca6 a93f
00000130: 26a0 833f c1d8 6e3f be28 873f c36f a53f
00000140: de5e 5b3f 4780 a83f 6e11 a53f be87 923f
00000150: e766 a83f d215 8c3f eda9 963f 8ee0 803f
00000160: e39b 9e3f 1e86 d13f ec90 953f 0b1d 9b3f
00000170: 27f0 a13f 8fa9 ba3f 6373 903f 2f6a 7c3f
00000180: e27a aa3f e17c 343f bb58 873f ea8b 6a3f
00000190: c1b8 7d3f d200 a83f 07d6 573f 54a9 b33f
000001a0: cfff 893f a187 a43f 5e80 823f 32c1 913f
000001b0: 5dfc 813f 4a39 9c3f 9418 5d3f 546f 9d3f
000001c0: 064f b23f 5169 9f3f 3169 933f 1c3e 9d3f
000001d0: 7004 973f ce9c a23f 8c1f a53f 5cb1 643f
000001e0: 2952 8e3f 3461 9f3f c475 c93f f59b 953f
000001f0: bfb8 a43f 0664 173f 206e aa3f 84b8 333f
1.4726045 1.080203 1.1131521 0.5620488 0.76052856 0.9930423 0.8137014 0.9845658
1.1605908 1.0941114 1.2998338 1.0682639 1.084995 1.2458448 0.936273 1.3507159
1.350092 0.85542417 1.4470885 0.9453705 1.0786984 1.2450894 0.8427102 0.88940626
1.2365483 0.99564314 1.438213 0.8012609 1.0048499 0.9088576 1.1314069 1.2867694
1.2488922 1.2258502 0.9678037 1.4586098 0.86505497 0.9148701 0.6859421 0.8253813
0.9353862 1.3184524 1.0613492 1.0309217 0.92830145 1.2309395 1.2655494 1.1538413
1.3921034 0.90625626 1.3551754 0.8036182 0.8705341 0.96021444 1.2669101 0.6798301
1.0246136 1.0630115 0.8841109 1.1140584 1.3036333 0.7387906 1.0502408 1.2102311
0.7950723 0.9557911 1.1330959 1.069207 0.9967377 1.024264 0.9927739 0.9476224
0.96663994 1.1532342 1.4257973 1.3253818 1.0283248 0.9329949 1.0559309 1.2924732
0.8569163 1.3164147 1.2895944 1.1447675 1.3156403 1.0944159 1.1770607 1.0068529
1.2391323 1.6369054 1.1684852 1.2118238 1.2651414 1.4582995 1.1285213 0.98599523
1.3318751 0.7050305 1.0573953 0.9161974 0.9911004 1.312525 0.84310955 1.403605
1.0781192 1.2853891 1.0195425 1.1387084 1.015514 1.2204983 0.8636563 1.22996
1.3930366 1.2454015 1.1516477 1.2284579 1.1798229 1.2704103 1.2900252 0.8933313
1.1118823 1.2451539 1.5739064 1.1688219 1.286888 0.59137 1.3314857 0.70203424

batchnorm2.bias f4 [128]
00000000: 9bb8 dbbe efe5 94bd d384 06bf 3040 8abe
00000010: 5418 d9ba 18dc 90be 4925 adbe 122e 90b9
00000020: 5d0f e6be a138 0ebf 77db 2ebf 40dc 34be
00000030: 7a94 dbbd 3ce3 a2be c52f 99be 9d35 0abf
00000040: 4f58 c93c 8205 13be 35a8 82be f3c8 a1be
00000050: c062 e5be 3f4b 3dbf e830 3fbe f055 05bd
00000060: eff8 0c3b f0a6 ddbe 1ed0 35bf 7241 4cbd
00000070: 6305 c5be 69bd 91be 4aea 11bd a16a 3dbe
00000080: 8c70 8dbe ec36 05bf c6de a7be fbdc 57be
00000090: 9b34 91be 70da 01be 70a4 f3bd 8c68 32be
000000a0: 26dc 2fbe 3b66 b7be 4946 57be 40c2 f9be
000000b0: 4458 a9be 352b 8abc de41 3fbe 1086 ae3c
000000c0: fe27 e1be 4961 9dbe b3f1 afbe 57e9 c0bd
000000d0: dfb3 8abe 3587 96be 608c 80be 124e 0abe
000000e0: b996 79bd eb04 d7bd 3aac a1be 3126 c0be
000000f0: 4e41 8a3d feda 40be 77ac eabe 2c8a 92be
00000100: dd1d 1dbd b2b7 9abd 41d3 1bbe ce1b ccbe
00000110: 7d20 26be 6498 10be b49d b8bd ab68 e6be
00000120: 2559 a0bd 5adb dfbe a1f3 afbe e920 e3be
00000130: 7ab8 7ebd 98de 97be 781d 37be 53c8 babe
00000140: 73e8 8cbd f3bd 3abe 70bd 12be 066a c1be
00000150: 55cc f9be b4c7 49be 068f f2be a804 83be
00000160: 8dab 2ebe b932 84bf 9756 23be 60d1 f0be
00000170: dd18 ddbe bcda 09bf 60f2 b1be 7b03 a2be
00000180: 6fe4 d8be 3cd9 80be 707a 9abe 06fe ddbd
00000190: 9772 acbe 5b21 fcbe 52f5 1cbe 1b02 01bf
000001a0: 533a 73be d574 58be b22d 05bf 5b17 b4be
000001b0: ac54 90be 8181 d9be 7d04 e8be 74ea 25bf
000001c0: 03ca 0fbe ef17 15bd 289a 84be e3cc 07be
000001d0: f0ff 89be 586c 1ebf 7475 56bd e501 9ebe
000001e0: b17a 13be 31d1 a3be fa59 31be 17d9 a4be
000001f0: 2339 81be 700e 2dbe f032 b8be fbed 62be
-0.4291428 -0.07270419 -0.52546424 -0.27002096 -0.0016563036 -0.28292918 -0.3381751 -0.00027500145
-0.44933596 -0.5555516 -0.68303627 -0.17662144 -0.10721679 -0.3181399 -0.29919258 -0.5398806
0.024578242 -0.1435757 -0.25518957 -0.31598625 -0.44801903 -0.7394294 -0.18671 -0.03255266
0.002151068 -0.43291426 -0.71020687 -0.0498671 -0.38480672 -0.2846482 -0.035623826 -0.18497707
-0.2762493 -0.5203693 -0.3278715 -0.21080391 -0.28360447 -0.12680984 -0.11896598 -0.17422694
-0.17173824 -0.35820183 -0.21022905 -0.48781013 -0.33075154 -0.016866306 -0.1867747 0.02130416
-0.43975824 -0.30738285 -0.3436409 -0.09419506 -0.27090356 -0.2940003 -0.25107098 -0.13506344
-0.060934756 -0.10498985 -0.3157671 -0.37529138 0.06750737 -0.18833539 -0.45834705 -0.28621042
-0.038358558 -0.07554568 -0.15217306 -0.39864963 -0.16223331 -0.14120632 -0.090144545 -0.4500173
-0.07829503 -0.4372204 -0.34365562 -0.44361046 -0.06218765 -0.29662013 -0.17882335 -0.3648096
-0.06880274 -0.18236522 -0.14330077 -0.37776202 -0.48788705 -0.19705087 -0.47374743 -0.2558949
-0.17057629 -1.0327979 -0.15951 -0.4703474 -0.43183032 -0.5384939 -0.3475523 -0.3164328
-0.4236178 -0.25165737 -0.30171537 -0.10839467 -0.33681175 -0.49244198 -0.15327957 -0.5039384
-0.23752718 -0.21138318 -0.5202285 -0.3517407 -0.281896 -0.42481616 -0.45315924 -0.6481087
-0.14041905 -0.036399778 -0.25898862 -0.13261752 -0.26953077 -0.6188407 -0.052358106 -0.3086082
-0.14402272 -0.31995538 -0.1731948 -0.32196876 -0.25238904 -0.16900039 -0.35976362 -0.22161095

batchnorm2.running_mean f4 [128]
00000000: 3389 833f 404e 5ac0 ca6f 7840 9ea9 22bf
00000010: 2575 1bc0 f6d2 8ebf 1d7a 193f f199 36c0
00000020: b964 5940 2af8 4040 599b 1b40 dd94 22bf
00000030: 9445 d1bf ca55 3140 3d72 a2bf 0d94 53bf
00000040: 4942 cdbf 3993 0dc0 36ce 94bf 3feb 733f
00000050: 0b8e 893f 981b b140 d390 2a3e 04ad ea3e
00000060: 0a29 adbf ccae babe c8f7 e03f e136 3140
00000070: e543 7fbe 307f 01bf 2936 90be d641 113e
00000080: 743c 5340 ef02 0c40 a6b8 713f 19d5 403f
00000090: b990 11c0 a26e e1bf a08b 68bf 4e70 2f40
000000a0: 466a 38c0 cbca 6fbe ad46 6ebf 02bf 023f
000000b0: 2b6c 40bf 9edc 8bbd 2b94 ae3f 9386 783f
000000c0: 9fd5 2440 fc1e 3240 d9d0 8640 57b9 0dc0
000000d0: bfb1 823f e994 5fc0 6aef 33c0 2d68 6cc0
000000e0: 5106 6fc0 2c5d 0ec0 ad41 0440 0cdf ae3e
000000f0: bf1d 1ec0 c81b 27c0 6b96 9f40 d5b5 22bf
00000100: 1225 59c0 e33a 07c0 91d7 56c0 48a4 51c0
00000110: 5cbb 1940 8259 b9bf 3dc6 e6bf 359d 4ebe
00000120: 4d84 21c0 4e7a 90bf 31be 2640 78ff 5ac0
00000130: 7665 55c0 d12f 913f 69a2 0ebe 42de a53f
00000140: 7388 0ec0 e23b 893f 0738 113f 0641 27bf
00000150: 1f6a a1bf 6523 8dbf 05da a93f 70a4 5c3f
00000160: be15 7e3e 920f 7740 8483 8cbf 8dc3 3640
00000170: 57dd 7a3f 874e c23f dab5 ac40 955d bc3f
00000180: aba5 4a3f c69c 5bbf 805a 08c0 ea85 e3bf
00000190: 563c 9e3f 1abb 2240 9158 cebf 9a52 543f
000001a0: 8b9f fa3f 8839 8740 6c21 2440 03cd 1c40
000001b0: 460d 11c0 6815 ec3e 0993 1d40 ce3a c740
000001c0: cf10 2340 5e29 22bf 1b15 a23f 02e3 2dc0
000001d0: 99c8 f4bd d644 3940 c5f9 4ec0 75b7 7e3e
000001e0: 68fb 8bc0 9e22 6dc0 e164 91bf d888 f4bf
000001f0: a5fd 36c0 f05e 4bc0 6df0 db3e be1f 71bf
1.0276245 -3.411026 3.881823 -0.63540065 -2.429025 -1.115813 0.59951955 -2.8531458
3.3967726 3.0151467 2.4313567 -0.635084 -1.6349359 2.7708611 -1.2691113 -0.8264778
-1.6035854 -2.2121108 -1.162543 0.9528083 1.0746473 5.5346184 0.16656809 0.45835125
-1.3528149 -0.36461484 1.7575617 2.7689745 -0.24928243 -0.505847 -0.2816632 0.1418527
3.3005648 2.187679 0.94422376 0.7532516 -2.2744582 -1.7611887 -0.9083805 2.7412295
-2.8814864 -0.23417203 -0.9307659 0.51072705 -0.7516505 -0.06829189 1.3638967 0.97080344
2.5755384 2.7831411 4.212994 -2.2144372 1.0210494 -3.4934638 -2.8114877 -3.6938584
-3.7347605 -2.2244368 2.0665085 0.34154546 -2.4705656 -2.6110706 4.9871116 -0.63558704
-3.3928876 -2.1129692 -3.3569071 -3.275652 2.4020605 -1.4480441 -1.8029248 -0.20177157
-2.5237 -1.1287324 2.6053584 -3.4218426 -3.3343177 1.1342717 -0.13929142 1.2958453
-2.2270782 1.07214 0.56726116 -0.6533359 -1.261051 -1.1026427 1.3269659 0.8618841
0.24812981 3.8603253 -1.0977635 2.8556855 0.9799399 1.5180215 5.3971987 1.4716059
0.7915904 -0.8578609 -2.1305237 -1.7775242 1.2362163 2.5426698 -1.6120778 0.8293854
1.9579939 4.225773 2.56454 2.450013 -2.2664351 0.46110082 2.4620993 6.2259283
2.547901 -0.6334437 1.2662691 -2.7169805 -0.119523235 2.8948264 -3.2339947 0.24874671
-4.3744392 -3.7052379 -1.1358911 -1.9104261 -2.8592312 -3.1776695 0.42956868 -0.9418906

batchnorm2.running_var f4 [128]
00000000: 68c9 0941 9f27 fe40 b792 9740 ad7e 3140
00000010: 0644 5640 9ae0 af40 609e b940 c744 1241
00000020: 0b2a ec40 08e0 d640 d71a cb40 17e7 ce40
00000030: e5d9 ef40 115b fa40 0cd3 d940 7d32 5540
00000040: 3231 9240 0470 b040 95d4 2541 5bf9 d740
00000050: 6772 e640 6d0c aa40 553b cf40 6e85 0a41
00000060: 1e02 2841 6264 8640 a4ba 8e40 866d 5c41
00000070: b339 3a41 0025 d740 413a f140 c526 ee40
00000080: 7ff4 0841 4c36 cd40 832e ad40 4638 2541
00000090: dce4 d140 7f00 c940 7300 9140 63e6 e540
000000a0: 48b5 d040 0d87 1441 b0d2 6d40 3462 5440
000000b0: d682 9f40 ad09 5d41 80f6 6941 c57f 5441
000000c0: 2742 d640 fa70 ab40 6b98 c340 0460 0a41
000000d0: 2fd9 de40 fa5d 2f41 d196 2d41 c2a5 7c40
000000e0: 77e8 dc40 5186 3341 5b7d 8840 3dfd d540
000000f0: b99a 3441 1152 9840 2c80 8540 aa54 6440
00000100: 1101 c140 5f97 0641 9659 e440 d52b da40
00000110: d5e7 7f40 5ea6 c940 1da6 0441 816f 8240
00000120: 9532 3941 54d1 a540 fb4b d440 6ee7 2041
00000130: 4200 a440 0714 0741 521c eb40 8efc 8540
00000140: d728 a140 b24b bc40 d604 2741 7c1c a240
00000150: 2cf7 0c41 1995 d240 ea30 7840 19d6 9940
00000160: b453 2e41 1191 0341 33b3 ac40 e065 c140
00000170: 0362 aa40 3a24 d940 a720 a340 d33c c640
00000180: e2ed 1041 75e2 4740 d124 a040 0397 c040
00000190: 72a0 1441 21b1 f840 6417 c740 7660 fa40
000001a0: 0c9c e440 13e5 d640 3c11 db40 6257 6740
000001b0: 7958 8d40 20d3 0241 56d0 b040 fb5f 8840
000001c0: 3716 a940 34e2 8941 ba38 8840 533a 3941
000001d0: 51ab ef40 66d3 a740 3373 c640 7299 1c41
000001e0: 2edd 8541 1e39 9440 ac64 1741 d1b2 c440
000001f0: ae14 8340 9f95 7640 0eab 0f41 f133 e840
8.611671 7.9423366 4.7366595 2.7733567 3.3479018 5.496167 5.800583 9.141791
7.380132 6.7148476 6.3470263 6.465709 7.4953485 7.8236165 6.8070126 3.3312066
4.5685053 5.513674 10.3644 6.749189 7.201465 5.314017 6.4759927 8.657576
10.500517 4.1997538 4.4602833 13.776739 11.639087 6.7232666 7.538361 7.4422326
8.559691 6.412878 5.4119277 10.326239 6.559187 6.2813106 4.531305 7.1843734
6.522129 9.282971 3.7159843 3.3184938 4.984721 13.814862 14.622681 13.281194
6.695575 5.357541 6.1123557 8.648441 6.9640117 10.9604435 10.84932 3.947617
6.903377 11.220292 4.265302 6.687163 11.287774 4.760018 4.171896 3.5676675
6.03138 8.411956 7.135936 6.8178506 3.998525 6.3015585 8.290555 4.0761113
11.574849 5.1818027 6.634275 10.056501 5.1250315 8.4423895 7.347207 4.1870794
5.0362353 5.88424 10.438681 5.065977 8.810345 6.5807004 3.8779855 4.807385
10.895435 8.222917 5.396875 6.043686 5.3244643 6.785672 5.097736 6.194925
9.058077 3.1231968 5.004494 6.018434 9.289171 7.771622 6.2216053 7.824275
7.1440487 6.715463 6.845854 3.6147084 4.41705 8.176544 5.5254316 4.2617164
5.283962 17.23545 4.2569246 11.576739 7.4896626 5.2445555 6.2015624 9.787462
16.732998 4.6319723 9.462078 6.146828 4.0962744 3.8528821 8.979261 7.2563405

fc1.weight f4 [256, 128]
00000000: 563f 12be 8681 c83e 3bf8 42bf a2a9 17be
00000010: 2883 8a3e 89c7 45bf b314 1a3f 0e27 a13e
00000020: fe2b 923c 8224 243e e386 adbd 5639 32bf
00000030: 0e04 f73e 4cc4 0abe 0e2f 06bf f8f6 96be
00000040: 7f7f 19bf 50a6 513e 366e 173e eda6 82be
00000050: c5dd ac3e 257e 883e 5a35 0abf dae9 1ebe
00000060: 8b3f eb3e bff9 aa3e 6f08 603d bba2 e53d
00000070: 507a 80bf 4e74 c3be af82 2d3f 7ae1 8fbf
00000080: 1bb7 443e 4952 b8bc 338e b8bc 06e5 48bf
00000090: 28b2 4e3e 5c5e cebd bba8 da3e dd94 753e
000000a0: 04a7 1c3e 521f b53e 3d7d 8dbf 8473 cfbe
000000b0: ce40 9fbe 98bc 7ebf 7547 1ac0 18dc 863e
000000c0: 2e46 9bbd 73d0 903d 5a43 37be 4b7c 97be
000000d0: 11d3 bd3d a0b2 a6bf 6319 51bf 4860 55bd
000000e0: da81 db3d 2239 723f 8467 c83e 88e7 9f3e
000000f0: f945 50be 44ce ddbe a1c1 a83e 509c f1be
00000100: e351 34bf ea1c a8bc aea1 57be a86a 9fbf
00000110: dd51 b93e 5c78 a9bf c916 c83e bf98 4a3e
00000120: 489f 50be 6da0 fabe 5189 c3be 72c6 1abf
00000130: 6a78 38bf dc70 d53d c424 bcbf 4af1 b43d
00000140: f5f3 89be 63b6 ba3d 05f7 923d b5ef 0abf
00000150: 9f2a 953e 5f78 c0bf 26d6 5a3d 4545 f6be
00000160: e65d 6d3f bf04 a43e 59bd 3bbd cb8b ffbe
00000170: ccfc bbbf b9e5 3c3e 7f69 84bd b2db 3f3e
00000180: 41f7 833e 28e7 f63e 0e61 65be 43f3 08bf
00000190: c3b2 003e 7cf1 ef3d 8e7c 7e3d 75d9 f83e
000001a0: c01d 88bf 584c d2be 9425 3e3f e746 05bf
000001b0: 03a1 8e3e 96ad a9bf 9012 523f 857c c93d
000001c0: 954f 7dbf df14 36bf 9378 bbbe 984f d7bf
000001d0: 9fe1 623f c45c 3abe 8313 02c0 4143 17be
000001e0: 3dfc fdbb ecd7 bf3d d4b8 bd3e c3ad b6be
000001f0: 417d 7e3d d465 083f 51b2 89bf 1342 8d3d
00000200: 90a5 2b3e 8e5e 70bf 55e3 893e aae1 edbe
00000210: a705 5c3d d5de 2c3e c69e 613e 6346 b3bf
00000220: 247a adbe 8fbe 103e 40af 7abd a70b c2be
00000230: 44a5 cdbe d9cc 513f 6ec3 033e 5db7 733c
00000240: 3a89 30bf e920 52be f28c 8f3d d312 953e
00000250: d6ad c0bd 81ed ffbe ff29 843e e749 dfbd
00000260: dafe dc3d 1a83 c23e 831e c9bc 01fa 823e
00000270: fad9 e4bd 953c 02bd 93b0 2bbd a88d fd3e
00000280: 663f 55be 92fc a83d b5f5 113f f9b9 013f
00000290: d888 46bd e35f 183e f142 cc3e bbba 053e
000002a0: ba5e 85be ecf0 033f 191e 19bf aa8d 013d
000002b0: 1e55 b63e 06ad edba 592d 233e 8241 413e
000002c0: 4e48 36bf 4354 6d3d 8c28 493e 124f 55bd
000002d0: babe 053e 669a 313f 0f5f 07bf 0bc3 d6be
000002e0: ba52 06bf 05e3 2e3f d47f 403e fe9c 133f
000002f0: 178f 24bd 0879 dbbd 9b20 babf 354b 8ebf
00000300: 80c9 103f 320e 703d a20f a93e e2d7 8dbe
00000310: e7d8 703d 2714 cc3e 68bc 1a3d aa8a 19bf
00000320: 8c96 36be 0184 da3d 992b fbbe bac5 773e
00000330: 64d6 943d e607 4abe de92 053e 6b23 a4be
00000340: 40ff bfbd 1771 ad3d efd9 353e db53 c0be
00000350: 1047 4d3e 3c08 96be 4e6b 723d 4983 3cbe
00000360: 8e29 93bc c15d 783e c1f8 b7be 11b6 e8bd
00000370: a6de d2bd 0280 64be 792e 74be b6ca 64bf
00000380: d4cd 933e baa0 aebf 485a 0f3f 772e 813e
00000390: 9625 b43e 725d 93bd d8f9 a0be fd93 913e
000003a0: 0f02 c03c 81f4 09bf fa59 873e 7a95 043f
000003b0: a28d bc3e dfc0 0c3f 7999 7a3b a66c 20bf
000003c0: 7323 2f3f de4b 6f3d c498 04bd 0003 3bbd
000003d0: 3ea1 0dbf 8eeb 4dbf 2882 ddbd 6905 c93d
000003e0: af85 24bf 07e0 2abe f48a 3abf c35d 4d3e
000003f0: 696e 6a3d 0fc7 29bf e2f4 143f 23cb 57bf
-0.14281973 0.3916132 -0.7616002 -0.14810804 0.2705319 -0.7725759 0.60187835 0.3147511
0.017843243 0.16029552 -0.08472993 -0.6961874 0.4824528 -0.13551444 -0.5241555 -0.29485297
-0.5996017 0.204736 0.14788136 -0.2551798 0.33762947 0.2665874 -0.5398766 -0.15518895
0.45946917 0.33393666 0.054695543 0.11212679 -1.0037327 -0.3817467 0.6777753 -1.1240685
0.19210474 -0.022500174 -0.022528743 -0.7847446 0.20185149 -0.10076591 0.42706856 0.23982568
0.15298086 0.35375458 -1.1053845 -0.4051782 -0.3110413 -0.9950652 -2.4106114 0.26339793
-0.07581745 0.070710085 -0.17896786 -0.29587016 0.09268773 -1.3023262 -0.8167936 -0.052093774
0.107181266 0.9461843 0.39141476 0.31231332 -0.20339192 -0.4332143 0.32960227 -0.4718957
-0.7043745 -0.0205216 -0.2105777 -1.2454424 0.3619527 -1.3239856 0.39079884 0.1978483
-0.20373261 -0.4895052 -0.38190702 -0.60459054 -0.7205874 0.10421917 -1.469872 0.08835085
-0.26943937 0.09116819 0.071760215 -0.54272014 0.2913408 -1.5036734 0.053426884 -0.48099723
0.927214 0.3203487 -0.045834873 -0.4991134 -1.4686522 0.18447007 -0.06465434 0.18736151
0.25774577 0.48223233 -0.22400305 -0.5349619 0.12568192 0.11715981 0.062130503 0.48603407
-1.0634079 -0.4107387 0.7427609 -0.52061313 0.27857217 -1.3256099 0.82059574 0.09838203
-0.9894956 -0.71125597 -0.36615428 -1.6821165 0.8862552 -0.1819945 -2.032441 -0.14771749
-0.0077510164 0.09367356 0.37055075 -0.35679445 0.06213117 0.5328038 -1.0757543 0.06897368
0.16762376 -0.9389428 0.26931253 -0.4646123 0.053716328 0.16881879 0.22033224 -1.4005855
-0.33882248 0.14135192 -0.061202288 -0.37899515 -0.4016515 0.819532 0.1286752 0.01487526
-0.6895939 -0.20520367 0.07009305 0.29115924 -0.094081566 -0.4998589 0.2581329 -0.10902768
0.107907966 0.37990648 -0.024550682 0.25581363 -0.11174388 -0.031796057 -0.04191644 0.49522138
-0.20824966 0.08251299 0.57015544 0.50674397 -0.048470348 0.14880328 0.39894822 0.13059513
-0.26048833 0.5153949 -0.5981155 0.031629242 0.35611814 -0.001813323 0.15935268 0.18872645
-0.7120408 0.057941686 0.19644374 -0.05207736 0.13061038 0.6937622 -0.5287942 -0.4194568
-0.5246998 0.68315154 0.18798763 0.57661426 -0.040175524 -0.10716444 -1.45412 -1.1116701
0.56557465 0.058607288 0.3301974 -0.27703768 0.058800604 0.39859125 0.037777334 -0.5997721
-0.17830867 0.10669709 -0.490567 0.2419652 0.07267454 -0.19729576 0.13044307 -0.32058272
-0.09374857 0.08468836 0.17758916 -0.37563977 0.2004664 -0.29303157 0.059184365 -0.18409456
-0.01796415 0.24254514 -0.35931972 -0.113628514 -0.10296373 -0.22314456 -0.23845853 -0.8937181
0.28867972 -1.36428 0.55997133 0.25230762 0.35184926 -0.07195558 -0.31440616 0.2843322
0.023438482 -0.5388871 0.26435834 0.51790583 0.36826807 0.549818 0.003823845 -0.62665784
0.68413466 0.058421962 -0.03237225 -0.045657158 -0.5532416 -0.8043755 -0.10815841 0.09815485
-0.64266485 -0.16687022 -0.72868276 0.20055299 0.0572342 -0.66319364 0.5818616 -0.8429434

fc1.bias f4 [256]
00000000: 8024 85be c944 8ebc 7340 fb3d eafe 20be
00000010: 66ea 5dbe c1a7 26be 5dbf 27be a937 8fbd
00000020: 7521 ecbd f7d9 18bd b71f d1be 489a 50bb
00000030: 039f b3be 9adb d83d d0d9 263e 9ad4 623e
00000040: 3196 26be c1c8 6ebe 79ea 06be f7c0 02be
00000050: 07bb bc3d 5f38 94bd 5c29 8ebe 87ca e33d
00000060: 7b6a dfbe b817 38be 1614 b1bd 2289 9dbe
00000070: b5ea fb3d 4150 ec3d 8493 6cbd c02f e43d
00000080: bc94 85b9 ba0e 96bd 7d83 6ebd 75dd b1be
00000090: 73bb 2d3d 8a90 1cbd 3bc8 8fbe 4281 0dbe
000000a0: f7e7 d2bd d862 3dbe edf3 d9bd 2ae0 96bd
000000b0: d214 9dbc 5649 b9bd 6a38 7fbd b47b bbbd
000000c0: 1e83 efbc d99a 8d3c 8878 0cbf 9ac0 acbd
000000d0: e207 d33d 2f86 173d 3271 fabb 2311 103e
000000e0: b57b 38be bbc0 dcbd 6daa a43c c2ea b5bd
000000f0: 51be 233e 1218 a8be 4b68 e5be 7b2f c7bd
00000100: 0ebb 0bbe 83ac 83be 9da0 2b3e 7a55 c3be
00000110: d5f6 27bd cc5b 6a3e 206d 3c3d 9977 e2bd
00000120: d239 e53d a131 b0be 68bf 3e3d c80e 143e
00000130: 9041 44be d640 dfbe 3035 353e b853 0dbf
00000140: 0c8e 743c 32c7 60be e337 5bbe 3b5d 453e
00000150: a414 e0bd 6231 dabe 9878 80be 9056 17be
00000160: 606b 51be ba11 80bd 5c9c 9bbd d348 eebd
00000170: a93c e4bd e6c3 9abc b01b cb3c 244a d7bd
00000180: ee33 1dbd 8f30 b2be f682 fcbd 5501 b3bd
00000190: 85f7 0dbe 6f80 36be 7f0f aebd 6487 20be
000001a0: f78f 75be f884 50bf c03b b6be ce38 c73d
000001b0: ddf7 5bbe 7435 253e 83f0 c2bd ac9a 793e
000001c0: e2a7 353d 5c90 03bb f642 3a3d c0bf cdbe
000001d0: 1de7 b5be dae0 61bd 97df bfbc 9e86 c9bd
000001e0: 47b2 e9be 7791 b6bd 5126 a53d 350a 0dbf
000001f0: d17d e0be 440e 033d bdfb 05bd c71a 003c
00000200: df3a 4f3e ca39 11be 9d38 c5bd e660 653e
00000210: cd0e 10be 9bad 04be e041 99be 5d61 08be
00000220: 4a71 ab3d 09d0 1bbe a039 6cbe df28 073b
00000230: d69a 2dbe 095a 8fbd 94ac 1cbe 93d3 c4bd
00000240: a5e6 96be 612e 1d3d 4851 0fbe 1711 93be
00000250: a7e0 cabd 2f1c b0bd f8af fbbd 0f01 993c
00000260: 0e17 26be d4e8 1ebf 00d6 bebe 63d2 e8bd
00000270: ba73 203e d18b bfbd c47b a9be d035 3abe
00000280: a3b5 37be d2d3 fa3d 65cd fcbd db0b 68be
00000290: 097e edbd a6f0 2abe d795 9f3c ce4c b4be
000002a0: 0775 e23d d443 83be a2fa 11be 5a1c cd3c
000002b0: 98f0 aabe 61f6 293e 490d 10bf 2c70 bfbe
000002c0: 86c5 81be b994 d9bd f542 72be b64e 86bd
000002d0: d2eb 52be c830 043d 9391 d2bd 9e12 a73d
000002e0: 80df 0ebe 5d5e 473c 8a75 5a3d 0fb3 a0be
000002f0: afd1 c6be 94a5 b4be 339b f0bc 1f7e 46be
00000300: a1e6 a4bd a23b 80be c7db 91be 0e87 00be
00000310: 1708 21be ebde a1bd f3d3 c1be 2bf7 30be
00000320: a937 95be b894 d5be fcff a53e caf8 09be
00000330: 0a38 663d aa0f 12be ce43 b23c 8352 85be
00000340: 4e07 2fbe e7f6 38be 7f45 3fbe 8964 39be
00000350: 3356 a1be af84 f13b 5fd8 2e3d f595 b6be
00000360: c479 c3be 53ed 64bd 664a a7be 06b2 21be
00000370: f593 8fbe 681e 6fbe 1350 35be 4ba5 a3be
00000380: e0e7 64be f72f 67be 05e5 213e 7947 3e3e
00000390: 133e f8bd acf6 0fbf 04af 12bd dec3 ddbe
000003a0: a35e 13be 2660 5d3e a2c2 a2be a96a edbe
000003b0: bde3 6cbd edf8 593d e75c 1e3d 5d64 f6be
000003c0: 4df6 00bd 109e 63be 196d 973e 570c 5cbe
000003d0: 8bfd 8dbe dfc1 62be 091e 45be 699a 99be
000003e0: 3f98 73be 3ebe c4bd 2264 e1bd 1da2 28be
000003f0: ed33 333d ce7d dbbe c7e0 7e3d 555e 233e
-0.2600441 -0.017366784 0.12268152 -0.15722242 -0.21671447 -0.1627493 -0.16381593 -0.06993038
-0.11529819 -0.037317242 -0.4084451 -0.003183024 -0.35082254 0.10588761 0.16294026 0.22151414
-0.16268231 -0.23318769 -0.13175382 -0.12768923 0.0921536 -0.072373144 -0.2776593 0.111226134
-0.43635926 -0.17977798 -0.08646409 -0.30768687 0.12300626 0.11538745 -0.05775787 0.1114192
-0.00025478553 -0.073270276 -0.058230866 -0.3473927 0.042415094 -0.03822378 -0.2808245 -0.13818839
-0.1029815 -0.18494737 -0.10642228 -0.07366975 -0.019174967 -0.09047191 -0.06230966 -0.09154454
-0.029237326 0.017285751 -0.54871416 -0.08435173 0.10304238 0.0369932 -0.0076428885 0.14069037
-0.1801594 -0.10778948 0.020100797 -0.08882667 0.15990569 -0.32830864 -0.44806132 -0.09725853
-0.13645574 -0.25717553 0.16760488 -0.3815115 -0.04100688 0.2288658 0.046002507 -0.11057968
0.11192669 -0.34412864 0.046569258 0.14458764 -0.19165635 -0.43604153 0.1769607 -0.5520587
0.014926445 -0.21950987 -0.21408038 0.19273846 -0.10941437 -0.426158 -0.25092006 -0.14779115
-0.20451117 -0.06253381 -0.075981826 -0.11634984 -0.111443825 -0.01889224 0.024793476 -0.10512188
-0.038379602 -0.34802672 -0.12329666 -0.087404884 -0.13863952 -0.17822431 -0.084990494 -0.15676647
-0.239807 -0.81452894 -0.3559246 0.097276315 -0.21481271 0.16133672 -0.0951853 0.24375409
0.04434956 -0.0020075059 0.045474015 -0.40185356 -0.35527888 -0.055146076 -0.023422046 -0.09840129
-0.45643827 -0.08914464 0.08063949 -0.550937 -0.4384599 0.031996027 -0.03271078 0.007818884
0.20237301 -0.14182201 -0.09629939 0.22400245 -0.14068146 -0.1295685 -0.2993307 -0.13318391
0.083712175 -0.15216078 -0.23068857 0.0020623726 -0.16953596 -0.06999595 -0.15300208 -0.09610667
-0.29472843 0.03837431 -0.1399585 -0.28723976 -0.0990613 -0.085991256 -0.12289423 0.018677263
-0.16219732 -0.6207402 -0.37272644 -0.11368253 0.15669146 -0.0935284 -0.33102238 -0.1818459
-0.17940383 0.12247433 -0.123438634 -0.22660773 -0.11596305 -0.16693363 0.019480629 -0.35214847
0.110574774 -0.25637686 -0.14255765 0.025037933 -0.33386683 0.16597892 -0.5627027 -0.37390268
-0.2534601 -0.1062407 -0.23658355 -0.06557982 -0.20597771 0.032273084 -0.10281672 0.08157848
-0.13952446 0.012168494 0.05333475 -0.3138661 -0.3883185 -0.35282576 -0.02937088 -0.19384049
-0.080518015 -0.25045496 -0.2848799 -0.1255152 -0.15725742 -0.07903846 -0.37857017 -0.17281787
-0.29144028 -0.41715026 0.32421863 -0.13473812 0.056205787 -0.14263788 0.021760847 -0.26039514
-0.1709263 -0.18062936 -0.18678854 -0.18104757 -0.31511077 0.0073705534 0.042686816 -0.35661283
-0.38178837 -0.055890393 -0.3267395 -0.15790567 -0.2804257 -0.23351443 -0.17706327 -0.31962046
-0.22354078 -0.22576891 0.1581002 0.18581952 -0.12121215 -0.56235766 -0.03581144 -0.43313497
-0.1439157 0.21618709 -0.31789118 -0.46370438 -0.057834376 0.05321591 0.038662817 -0.48123446
-0.03148489 -0.22228265 0.29575422 -0.21489082 -0.277325 -0.22144268 -0.19249739 -0.30000618
-0.23788546 -0.09606598 -0.11005427 -0.16468091 0.043750692 -0.4286942 0.062226083 0.15953954
