UK_wind_model.pth (torch, 250791 bytes, 16 tensors)

conv1.weight f4 [64, 6, 3]
000000 d4 8d 4b be e7 bc 90 3d d6 af 6d 3d 18 c3 15 bd
       -0.19878322 0.0706728 0.05802902 -0.03656301
000010 74 e9 c1 be 08 87 63 be d5 5c 24 3d 70 e4 98 3e
       -0.37873423 -0.22219479 0.040127594 0.29861784
000020 67 55 1c be 79 29 e8 bd ac 5c 21 3f 65 47 1c 3d
       -0.15266953 -0.11336035 0.6303203 0.038154025
000030 0f a8 55 be 70 7c 3e 3f 21 63 36 3e 18 c3 f7 bd
       -0.2086489 0.74408627 0.17811252 -0.12097758
000040 32 cd 13 be 1a bd c8 3d 61 91 9d 3b f8 b8 e1 bd
       -0.14433745 0.09801693 0.0048085903 -0.11021608
000050 14 88 3a 3e 85 40 89 bd 69 be ae 3f 84 ed 5f 3e
       0.18215972 -0.06701759 1.3651859 0.21867949
000060 92 33 6a be bc 47 db 3e 9b 3c 0b 3e ef b3 57 3e
       -0.22871235 0.42828166 0.13597338 0.21064733
000070 31 83 91 3c 7c 0c 23 3e c7 15 34 be 90 11 fe bc
       0.017762752 0.15922731 -0.17586432 -0.031014234
000080 37 89 c6 bd 64 76 7f bd 7d a6 27 3c ad 26 a9 3d
       -0.096941404 -0.062368765 0.010232565 0.0825933
000090 b4 9e 2e 3c f3 52 9a 3e c7 50 07 3d b3 38 f3 bd
       0.010657955 0.3014141 0.03303602 -0.11876049
0000a0 25 10 c3 3e ac 8e c8 3d 4c 3f 4b be c3 37 c4 3e
       0.38098255 0.097928375 -0.19848365 0.38323793
0000b0 14 b7 02 3e 6b 7a 4d be ee c2 ea bc 52 f0 b2 3d
       0.12765151 -0.2006623 -0.028657403 0.08737244
0000c0 a8 e4 45 3e b1 85 6e 3f 1d 33 ce 3d 84 0c 55 be
       0.19325507 0.93172747 0.10068343 -0.20805556
0000d0 59 f7 56 3e 67 18 61 3e f4 73 6e 3e 4a 84 ca 3e
       0.20992793 0.21981965 0.2328642 0.39554054
0000e0 fa d2 39 be cf 45 a6 3d 18 eb 71 be 47 ff 48 3d
       -0.18146887 0.08118784 -0.23624837 0.049071576
0000f0 9c 47 12 bd dc a8 12 bf 7d d4 48 be 86 74 8b 3c
       -0.035712823 -0.5728891 -0.19612308 0.017023336
000100 f0 5d 4c 3f 7d 55 d8 bd 64 e7 64 be 60 92 8f be
       0.7983084 -0.105631806 -0.22353894 -0.28041363
000110 30 52 ae 3d cb d9 37 bd 2c 3d 9f be 50 07 c6 bc
       0.0851177 -0.044885438 -0.31101358 -0.024173409
000120 de dd b4 bd f6 08 da 3e 45 84 ce bd 30 2b e3 bd
       -0.0883138 0.42584962 -0.10083822 -0.11092222
000130 e5 b5 cd 3d a6 29 1d be d1 5b 1d bd 8d 5d 5f 3c
       0.10044459 -0.15347919 -0.03841764 0.013633144
000140 36 de 5c 3e f9 00 d0 3c 95 73 7a 3e 42 fa 85 bd
       0.21569142 0.025391089 0.24458154 -0.065418735
000150 b5 46 ea 3d 91 a6 2b 3e b0 da 2e 3c 97 17 42 be
       0.114392675 0.16762759 0.010672256 -0.18954311
000160 e0 6c c7 bf 2c 73 a7 3c 0d 8d 4f be e5 f8 02 3f
       -1.5580101 0.02044066 -0.2026865 0.5116103
000170 ee 04 9e 3c 7c 96 cb 3c c6 65 ca 3e 0c b7 ac 3d
       0.01928946 0.02485203 0.39530772 0.08433351
000180 a0 d7 f5 3d db 2a 7c 3d 3d a8 56 be f4 d3 f9 3d
       0.12004018 0.061564308 -0.20962615 0.1219863
000190 97 3c 1d bf eb dc 62 3e 8e cb 06 be 86 bc 0f 3f
       -0.6142058 0.22154586 -0.13163587 0.5614704
0001a0 03 33 02 3c 98 87 ef 3b cb 0c 08 be 9a 54 27 be
       0.007946732 0.007309865 -0.1328613 -0.16340867
0001b0 cd 49 0c be 1d 24 72 be 1d 7c ae 3d fb b1 f2 3d
       -0.13700028 -0.23646589 0.085197665 0.11850353
0001c0 da 71 39 3f a9 b1 5e be a1 94 68 bd 01 c1 6a 3e
       0.7243935 -0.2174746 -0.05678237 0.22925188
0001d0 23 1c 0e be 0b b0 2b be 91 0c f9 3e d6 a4 cc 3d
       -0.13877921 -0.16766374 0.486424 0.099923775
0001e0 0e c6 d4 bd 32 51 b1 be 7a 79 58 be 72 3a cd 3c
       -0.103893384 -0.3463226 -0.2114009 0.025052283
0001f0 3c e5 e0 3e fc ba 42 be 5e 69 b9 3c ac 34 58 3f
       0.43924892 -0.19016641 0.02263325 0.8445537
000200 33 01 37 3e 6a b8 16 3e 1c 46 2a 3e c2 9b d2 bd
       0.17871551 0.14718786 0.16628307 -0.10283615
000210 0a f5 5d 3d 05 43 11 3f 8f ee f3 bd f7 4a 22 3e
       0.054188766 0.5674289 -0.11910736 0.1584891
000220 61 c2 d2 bd 6e 3f 6e be c9 33 3d be 07 05 8b 3d
       -0.10290981 -0.23266384 -0.18476786 0.06788068
000230 d9 29 60 be 5a 64 51 3e e7 3c ae be e0 32 15 bd
       -0.21890964 0.20448437 -0.3403084 -0.03642547
000240 81 c6 5b 3e 02 1d 97 bd 48 99 2a 3e cb c3 50 be
       0.21462442 -0.0737858 0.16660035 -0.20387189
000250 55 91 9c be 78 a4 01 be ab a4 01 3e ab 89 c4 3d
       -0.3057963 -0.12660396 0.12660472 0.095965706
000260 47 f1 51 3e 0f e9 63 be b5 b4 f0 bd 99 5a 50 3d
       0.20502196 -0.22256874 -0.11753217 0.05086765
000270 41 dc e0 3d 15 51 02 be e5 7a b7 bd 48 08 47 3e
       0.1097951 -0.12726243 -0.08958987 0.19436753
000280 4e 6d fc bf a3 23 36 3e a7 a6 6a be b1 75 37 3f
       -1.9720857 0.17787032 -0.22915135 0.7166396
000290 49 9d 6c 3e 3f de 35 be 49 b0 1a 3f 3c 6a 77 3d
       0.23106875 -0.17760561 0.6042524 0.060404047
0002a0 8f ea c5 b9 bc 38 4f be d8 a3 bc 3d 47 34 6a 3e
       -0.00037749528 -0.20236486 0.09210938 0.22871505
0002b0 de 4d 2f 3c c7 c2 68 3e ea c1 b1 3d 3e eb ae 3e
       0.010699717 0.22730552 0.08679564 0.3416385
0002c0 4d bc 36 bd c0 a0 ca 3d 9a 3b 55 be eb 2d 05 3d
       -0.04461317 0.09893942 -0.20823517 0.032514494
0002d0 a4 b3 38 bd 8a 6a 8b 3f 52 25 12 3e 0b 71 0f 3e
       -0.045093194 1.0891888 0.14272049 0.14007966
0002e0 a9 22 a0 3d c5 30 63 bd b6 00 0a be 4d 88 bb 3e
       0.07819111 -0.055466432 -0.13476834 0.36627427
0002f0 ee 64 38 3e 55 b0 17 be 39 04 8e be 29 a6 37 be
       0.18007252 -0.14813359 -0.27737597 -0.17934479
000300 73 8e 68 be 14 39 f1 3e 54 bf 3d 3e d2 58 a2 3d
       -0.2271059 0.4711386 0.18530017 0.079270974
000310 03 ad c3 3d fa b1 23 bc ff 8e 3f be b9 07 69 be
       0.09554484 -0.009991163 -0.18706892 -0.22756852
000320 32 06 6a be 28 1c d2 3d b3 8a 84 be 50 e6 55 be
       -0.22853926 0.10259277 -0.2588707 -0.20888638
000330 45 9b 2f 3e 1f 04 06 be de 26 61 3c c2 89 61 be
       0.17149074 -0.1308751 0.013742177 -0.22025207
000340 1d e7 84 bf 46 e1 44 bc 7c 7c 49 be 41 5e e6 be
       -1.038303 -0.0120166 -0.19676393 -0.44993785
000350 d1 28 b3 bd c2 87 05 be fe cf 25 3e af 41 c7 bd
       -0.087480195 -0.13040069 0.16192624 -0.09729325
000360 69 bd 21 be fc a3 50 3e 72 9c 5d 3d 99 21 9d 3d
       -0.1579491 0.20375055 0.054104276 0.07672424
000370 e1 ef 6a 3f 46 54 47 be b0 fc 50 3e 2e c9 51 3e
       0.91772276 -0.19465742 0.20408893 0.204869
000380 e9 e7 46 bd 08 ec b8 3d ba 79 f4 be f5 65 20 3e
       -0.04856101 0.090293944 -0.4774912 0.15663894
000390 9e 39 67 bd da d1 65 be 99 ec 41 be d1 63 1f be
       -0.056451432 -0.22443333 -0.18937911 -0.1556542
0003a0 ad 6d fd be 79 28 db 3d 67 bc f4 bd b7 84 22 3f
       -0.49497738 0.10701079 -0.119499974 0.63483757
0003b0 ef 95 ec 3d 75 75 6b be c8 53 3b 3e 3e b7 65 3d
       0.11552035 -0.22994025 0.18293679 0.056082956
0003c0 72 96 b8 3d d5 b7 55 bf 51 3e 6e 3c 7a bb 00 3e
       0.0901307 -0.8348363 0.014541225 0.12571517
0003d0 19 4e d3 bd 3a 33 26 3e 1b 9d 32 be 17 0b 80 3d
       -0.1031763 0.16230479 -0.17442743 0.06252115
0003e0 81 13 61 3e 2d 66 d0 bd 39 17 9a 3e 31 5b 7c 3d
       0.21980096 -0.101757385 0.30095842 0.061610404
0003f0 ff b0 14 be 3f df d1 3e be a3 ed 3d 46 87 88 bd
       -0.14520644 0.40990636 0.11603497 -0.06666426

conv1.bias f4 [64]
000000 5d 06 dd bd b2 cb 97 3e 8e 6a 37 3e d8 ff b7 be
       -0.10792229 0.29647595 0.17911741 -0.3593738
000010 d0 f4 42 be 32 a1 cd be b7 a7 3f 3c 30 01 6e 3d
       -0.19038701 -0.40162045 0.011697701 0.0581066
000020 13 b9 13 be d2 8a c8 3c 5b 63 f1 3b b9 1c 51 be
       -0.14426069 0.024480257 0.0073665804 -0.20421113
000030 06 4e 2e 3e df 90 75 3e 56 17 ad bd 08 0f 77 3e
       0.17021951 0.23981045 -0.084517166 0.24126828
000040 19 08 48 3e 57 48 60 3e 30 2c bf bd b2 f7 a0 3e
       0.19534339 0.21902595 -0.093346 0.31438977
000050 3d 67 82 be 65 5c 7b 3e 79 37 a7 bd 13 cf 19 be
       -0.2546939 0.24546964 -0.081648774 -0.15020399
000060 26 f5 6e 3e d1 4b 89 3b 48 1d f4 bd 40 c0 55 3e
       0.23335704 0.004189946 -0.119196475 0.20874119
000070 9d ef 2b be 8b e3 14 be 81 85 8e 3e d4 1c 85 3e
       -0.16790624 -0.14539926 0.2783623 0.25998557
000080 fc 47 05 be 80 ac a1 bc 7e d6 96 be 97 2b 20 3d
       -0.13015741 -0.019735575 -0.2946052 0.03910407
000090 ca 7f 92 be 9f 7d f1 be 44 10 26 3e 50 63 8c bc
       -0.2861312 -0.47166154 0.16217142 -0.0171372
0000a0 60 59 b5 be e9 db 8b bb ba e2 24 bc 81 ec 75 be
       -0.3541975 -0.0042681587 -0.010063821 -0.24016
0000b0 7b 67 5c 3e 30 4d fb 3d 35 09 f8 bd 4b 49 e6 3e
       0.2152385 0.12270582 -0.12111131 0.44977793
0000c0 35 a5 c0 be 14 fe 87 be f8 fd b5 3d af cd 89 3d
       -0.37626043 -0.26561034 0.08886331 0.06728684
0000d0 4f c4 65 3e 17 e9 91 be 03 9e 94 be 5a ae 31 bd
       0.22438167 -0.28498146 -0.29026803 -0.043379165
0000e0 8a 41 9e bd 26 b1 78 3e 91 6f 99 bd ae 54 a9 3e
       -0.07727344 0.24286327 -0.07491983 0.33072418
0000f0 b1 30 ab ba 00 db 83 3e dd 40 0c be 15 41 99 3e
       -0.0013060776 0.2575302 -0.13696618 0.29932466

batchnorm1.weight f4 [64]
000000 7b 73 68 3f b9 a9 c7 3f 22 13 9f 3f a4 9c 91 3f
       0.9080121 1.559867 1.2427714 1.1375928
000010 fa 78 a1 3f 7a fc 75 3f 55 af 81 3f a3 6e 54 3f
       1.2615044 0.96088374 1.0131632 0.8298132
000020 02 a7 de 3f 23 00 93 3f a6 4c 8c 3f e7 6b 76 3f
       1.7394717 1.1484417 1.0960891 0.96258396
000030 56 b5 80 3f 54 b8 91 3f a2 21 24 3f ec f2 aa 3f
       1.0055339 1.1384377 0.6411382 1.3355384
000040 01 c4 88 3f 4c 46 6b 3f 51 f1 77 3f 25 6b 84 3f
       1.0684816 0.9190414 0.96852595 1.0345198
000050 02 d6 6c 3f e1 2b 9d 3f 1f 04 55 3f 37 d6 a0 3f
       0.9251405 1.2279016 0.83209413 1.2565373
000060 4a 10 5f 3f 5d 75 82 3f 37 30 99 3f c2 2d a3 3f
       0.8713423 1.0192066 1.1967839 1.2748339
000070 1b 03 79 3f 4c 96 9b 3f 68 07 8f 3f a5 80 a1 3f
       0.97270364 1.2155242 1.1174135 1.2617384
000080 4a ec 27 3f c8 d7 a4 3f cc 93 67 3f 5a 31 86 3f
       0.65594923 1.2878351 0.90459895 1.0483811
000090 9b b1 a5 3f 1d 06 a7 3f be fa c1 3f 65 3d 96 3f
       1.2944826 1.3048741 1.5154645 1.1737486
0000a0 75 09 a0 3f 76 3d aa 3f 85 cd 83 3f 0e 03 63 3f
       1.2502886 1.3300006 1.0297095 0.88676536
0000b0 1b 00 cd 3f 69 fd 39 3f 75 42 bb 3f d9 8e 88 3f
       1.6015657 0.726523 1.4629656 1.0668594
0000c0 63 f5 9d 3f 7b aa 71 3f 9c 1f 8c 3f 75 6d 5c 3f
       1.2340511 0.9440076 1.0947146 0.8610452
0000d0 df 47 79 3f ad 9a 93 3f 11 80 f1 3f 13 a3 5b 3f
       0.9737529 1.1531578 1.8867208 0.85795707
0000e0 e1 44 f5 3e f8 a4 88 3f 48 d4 a0 3f 6f 74 75 3f
       0.47904113 1.0675344 1.2564783 0.9588079
0000f0 5b 80 e2 3f 01 50 5b 3f 6a 01 51 3f 4b a4 59 3f
       1.7695421 0.8566895 0.8164278 0.85016316

batchnorm1.bias f4 [64]
000000 64 f9 98 be ab 2e ef be f5 cc 6d be 2a b3 7c 3d
       -0.2987777 -0.46715292 -0.23222716 0.0616943
000010 31 5a 94 be af 88 bc bd 62 2e 86 be 12 a1 5d bd
       -0.2897506 -0.09205758 -0.26207262 -0.054108687
000020 cc 0c 9c be ba a3 03 be dd 5a 80 be 59 d4 bc be
       -0.30478513 -0.12855425 -0.25069323 -0.36880758
000030 66 78 a0 be ea bc cf be 4d 1a 51 3c 5d 2e be bd
       -0.31341857 -0.40573817 0.012762618 -0.09286187
000040 fd 82 a0 3e d6 16 8e bd 79 ab 0b be ec c6 a4 3d
       0.31349936 -0.06937949 -0.1363963 0.08045754
000050 6a 06 56 bd de 3b 74 3c 14 31 c2 bd 5d d5 87 be
       -0.05225221 0.014906852 -0.09482017 -0.2652997
000060 ff 9d 07 bd 81 07 06 bf 5f e0 01 be c3 da a3 be
       -0.03310966 -0.523552 -0.12683247 -0.3200284
000070 5f 6d bc bd ea b0 66 be 45 8c 3e be f9 6b 1b 3c
       -0.092005484 -0.22528425 -0.18608196 0.009486192
000080 71 75 9c be 68 8c 2f be d5 b6 b8 be 33 f5 90 be
       -0.3055835 -0.17143404 -0.3607699 -0.28312072
000090 3e 35 86 be 47 49 db 3d 39 45 f4 3d 86 e7 3a 3e
       -0.26212496 0.10707336 0.11927266 0.18252382
0000a0 52 3a ae 3b 76 1c a4 be 77 84 6d bd d1 3f 30 be
       0.005317011 -0.32052964 -0.057987656 -0.17211844
0000b0 2e 5a ce 3b 24 05 00 3e a5 bb 78 be eb 7c de bd
       0.0062973714 0.12501961 -0.2429033 -0.1086367
0000c0 e5 c7 93 bd 96 ec 11 3d 6c 77 25 be ba 1d ed bc
       -0.07215861 0.035626017 -0.16158837 -0.028944839
0000d0 ce 79 bd bd 1f ae 3d bd ab a6 08 bf 41 d3 3b be
       -0.09251748 -0.046308633 -0.53379315 -0.18342306
0000e0 d1 3a 2f 3d ef db e4 bd 2a e1 19 bf 15 a2 3a bd
       0.0427807 -0.111747615 -0.601092 -0.04556473
0000f0 30 e4 8a be ce 07 fc 3d 9f 66 c2 be b7 92 df 3d
       -0.27127218 0.12306176 -0.3796892 0.109166555

batchnorm1.running_mean f4 [64]
000000 43 a6 ce bd 8d d0 90 3e 50 c3 40 3e c5 0f b9 be
       -0.10090306 0.28284112 0.18824506 -0.36144844
000010 f3 d2 40 be 42 5e c8 be 87 69 7d bb d9 98 75 3d
       -0.1883047 -0.39134413 -0.0038667636 0.05996022
000020 71 2e 12 be 44 37 e9 3c 98 ef 8f 3c 48 da 4d be
       -0.14275528 0.028468736 0.017570302 -0.20102799
000030 67 2b 28 3e 91 77 7d 3e c3 7d c5 bd d6 fe 7d 3e
       0.16422807 0.24752642 -0.09643128 0.24804243
000040 3e 3e 5a 3e 83 58 52 3e 32 5e ca bd 76 12 a2 3e
       0.21312806 0.20541577 -0.098812476 0.3165471
000050 88 c5 7a be 45 c5 6e 3e cc d4 8b bd ac 21 1a be
       -0.24489415 0.2331744 -0.06827697 -0.15051907
000060 d0 d7 65 3e f0 a1 ca bb e8 86 e4 bd 65 7b 66 3e
       0.22445607 -0.0061838552 -0.11158544 0.22508009
000070 34 41 32 be f4 26 21 be f6 ff 93 3e 21 35 87 3e
       -0.17407686 -0.15737516 0.2890622 0.26407722
000080 d3 e1 05 be fb 65 ff bb 58 9d 97 be 64 b5 1f 3d
       -0.13074426 -0.0077941394 -0.2961223 0.038991347
000090 ab 03 93 be 93 09 ec be b3 a1 17 3e d4 e1 37 bc
       -0.28713736 -0.46101055 0.14807777 -0.011223275
0000a0 00 ed b6 be c3 0f 06 bc e5 05 a1 bc 84 05 70 be
       -0.35727692 -0.008182469 -0.019656131 -0.23439604
0000b0 46 00 50 3e 92 60 ee 3d 33 d3 00 be 30 02 e8 3e
       0.20312604 0.11639513 -0.12580566 0.4531417
0000c0 b3 ba c4 be a1 f5 84 be 8a f4 a8 3d 1c 05 8d 3d
       -0.3842369 -0.2596865 0.08249767 0.0688574
0000d0 0a b1 71 3e 9e d1 93 be 3a d0 94 be 1e a7 57 bd
       0.23602691 -0.28870863 -0.29065114 -0.05264961
0000e0 18 f3 b1 bd 2b 88 76 3e cb 93 a9 bd ec ce ad 3e
       -0.086889446 0.24075381 -0.082801424 0.3394693
0000f0 89 a8 76 3a 8b 0c 8e 3e 8f cb 02 be f1 7a 9a 3e
       0.0009409269 0.27743945 -0.12772964 0.30171922

batchnorm1.running_var f4 [64]
000000 37 3d 93 3f a6 4f f3 3f 45 cd 4e 3f f5 0c 89 3f
       1.1503056 1.9008682 0.80781966 1.0707079
000010 eb 53 07 40 01 96 52 3f b1 f4 76 3f 7d 4f 48 3f
       2.114497 0.8226014 0.9646712 0.7824629
000020 32 7c 5b 40 d4 ae 31 3f 41 4f c2 3f 13 72 a0 3f
       3.4294553 0.6940739 1.5180436 1.2534813
000030 1a e9 d8 3f 74 17 96 3f 0f c5 54 3f 82 aa 91 3f
       1.6946137 1.1725907 0.8311319 1.138016
000040 71 64 d8 3f a8 e2 cc 3f 55 11 30 3f 65 ec 93 3f
       1.6905652 1.600667 0.68776447 1.1556517
000050 88 25 77 3f 9d 9c 84 3f 6e 4d dc 3f d7 31 80 3f
       0.96541643 1.0360295 1.721113 1.001521
000060 95 4d 7c 3f 34 af 31 3f 55 df 83 3f 93 fb e6 3f
       0.9855588 0.69407964 1.030253 1.8045524
000070 55 fa 96 3f ed a1 b7 3f 74 a7 66 3f 27 6b 3d 3f
       1.1795145 1.4346291 0.90099263 0.73991627
000080 86 ca 80 3f 09 54 ab 3f e6 4b de 3f f1 a6 88 3f
       1.0061805 1.338502 1.7366912 1.0675946
000090 30 3b cd 3f a2 13 48 3f f2 23 30 40 29 3d 74 3f
       1.6033688 0.7815496 2.752194 0.95405823
0000a0 a5 b7 6d 3f 91 0b 7c 3f a7 1f 2a 3f ad 23 47 3f
       0.92858344 0.9845515 0.6645455 0.7778881
0000b0 cd 01 e8 3f 34 03 a6 3f 78 cf 6f 3f 71 0e 49 3f
       1.812555 1.2969728 0.9367595 0.7853766
0000c0 e4 42 26 3f e5 db 2e 3f 97 c1 53 40 9b 93 8b 3f
       0.64945817 0.6830428 3.3086908 1.0904421
0000d0 e7 c1 98 3f 5d b2 49 3f 0e bf c6 40 9b c7 b1 3f
       1.1934174 0.78787786 6.210822 1.388904
0000e0 f8 9e 7b 3f f9 a8 a1 3f 92 40 b7 3f 96 29 2d 3f
       0.9828944 1.2629691 1.431658 0.6764158
0000f0 95 8d 78 3f c1 5c cb 3f 87 b4 8c 3f bd c6 43 3f
       0.9709104 1.5887681 1.0992593 0.76475126

conv2.weight f4 [128, 64, 3]
000000 4f 0a 0a bc 13 e5 f5 be 70 ce 0a bd 73 9a 81 bd
       -0.008425309 -0.48026332 -0.03388828 -0.06328287
000010 3d 50 74 3d de d5 f8 3b c1 75 75 bd 44 7a af be
       0.059646834 0.0075938543 -0.059926752 -0.3427297
000020 77 8b 8a bd 78 2e f2 bc a0 9d a3 3e b2 fb 15 bd
       -0.06764882 -0.029563174 0.31956196 -0.03661699
000030 cc 80 74 bd 12 34 2e 3f 81 50 0b 3d 30 ab 92 3d
       -0.059693143 0.68048203 0.03401232 0.07161558
000040 88 27 28 3e a5 df 1e 3d 29 47 0d bd 6b 61 15 bf
       0.1642133 0.038787503 -0.03449169 -0.58351773
000050 0c 5c 42 3c 57 38 33 3d 96 7b 26 bf 75 f8 22 bd
       0.011862766 0.0437549 -0.6503233 -0.03978773
000060 7d 6d 24 bc db 6e af be 87 9e 3c 3d ac 73 66 3b
       -0.01003587 -0.34264264 0.04604962 0.003516416
000070 e6 d7 2b be 88 0a ab bb a1 2d 96 3c 52 96 68 3f
       -0.16781577 -0.0052197613 0.018332304 0.9085437
000080 a9 2c 2d 3d 2f 3e 80 3d 3f 3f 44 3e 4e 5b 34 bd
       0.04227892 0.062618606 0.19164751 -0.044032387
000090 03 bb 5d 3d 03 df 1c bf 66 f3 ef 3c 55 37 ad bc
       0.054133426 -0.6127779 0.029290866 -0.021144548
0000a0 8c 36 25 3f e1 21 03 bd f0 4e 81 3c 99 43 3e 3e
       0.64536357 -0.03201473 0.01578471 0.18580474
0000b0 76 29 63 bb 23 fd 45 bd 8e fe 06 bd 18 b5 9d 3c
       -0.0034662164 -0.048337113 -0.032957606 0.019251391
0000c0 60 38 86 bd 6d 8b 47 bf 1e 81 85 3d 50 a1 48 bd
       -0.065537214 -0.7794712 0.06518768 -0.048981965
0000d0 c1 7e 7e bd 08 4f 22 3d ca 4d 70 bc 3c 86 01 3f
       -0.0621326 0.03962615 -0.014666984 0.5059545
0000e0 ad e6 39 bd 95 d0 82 bd 99 e1 1d bd 1b ee 84 3d
       -0.045386005 -0.0638744 -0.038545225 0.064907275
0000f0 38 d0 04 3d 2b 5b cd 3d 2e 8b ce ba 44 e8 8c bd
       0.032425135 0.100271545 -0.0015758032 -0.06880239
000100 78 70 00 bf fa aa 8d 3b 8b 03 3c 3d 04 1c a9 3e
       -0.50171614 0.0043233605 0.045901816 0.33029187
000110 98 0f d4 3c e5 41 ea 3c f2 2b ab be 4f 33 76 bc
       0.025886342 0.028595874 -0.33431965 -0.015026881
000120 51 15 59 bc d8 c5 b0 be 9f 6c 24 3c 9f 51 85 bd
       -0.013249711 -0.34525943 0.010035663 -0.065097086
000130 68 4f af 3e 7f a0 5c 3d 0a 99 54 3c 03 9b 5e 3e
       0.3424027 0.053864 0.0129759405 0.2173882
000140 67 5b cc bc 9e 28 9d bc 2a 2e ec be 8c 9b b6 3c
       -0.024945928 -0.019184407 -0.4612897 0.022290967
000150 22 92 25 3d 09 c0 cb 3e 14 06 ae ba 7d a7 66 bb
       0.040422566 0.3979495 -0.0013276958 -0.0035195046
000160 56 61 53 be e9 e5 ad 3c 65 e2 40 3d 9d e4 ff be
       -0.206426 0.021227794 0.047090907 -0.49979106
000170 83 59 e8 3a 2e 12 0e bb d0 fd 94 be 58 29 72 bc
       0.0017726872 -0.0021678316 -0.29099894 -0.014780365
000180 aa 91 64 bd e9 92 ba bd c0 b6 32 bd 59 69 e1 bc
       -0.05580298 -0.09110052 -0.043631315 -0.027516054
000190 ab 01 51 bf 07 3e 5f bd 3c b5 71 bd d6 35 e4 3d
       -0.8164317 -0.054502513 -0.05901073 0.11143081
0001a0 7b f5 af 3c f1 26 8e 3d 89 51 e6 3e 18 6b 36 3d
       0.021479359 0.06941021 0.4498408 0.044535726
0001b0 69 29 05 3d 1a e2 1d 3e dc 41 04 bd ad a6 9c bb
       0.032510195 0.15418282 -0.03228937 -0.0047806115
0001c0 b6 2b c3 bf b9 48 78 bd 34 d2 4e bd 8c d0 31 be
       -1.5247715 -0.06061623 -0.050493434 -0.1736471
0001d0 ed d0 23 3d 64 f3 0e bd 05 43 0f 3e 2a 4e e9 bc
       0.03999417 -0.034900084 0.1399041 -0.028479654
0001e0 20 c4 85 bc 44 1b 11 be 73 b0 7a bd 2f dc dd 3c
       -0.016328871 -0.14170557 -0.06120343 0.02708253
0001f0 08 4f 07 3d 50 56 55 3d 2d 59 66 bd ca 1f f2 3c
       0.033034354 0.052084267 -0.05623739 0.029556174
000200 0f c0 96 bc 25 8d 7b bc af f5 03 bf bd be 5c 3d
       -0.018402128 -0.015353476 -0.5154676 0.05389284
000210 54 fd 06 bd 20 c9 28 bc eb 71 7c bc 5c e7 44 3d
       -0.032956436 -0.010301858 -0.01540802 0.048072204
000220 3f 17 71 bf 8b 4a 10 bd 84 a5 f8 bb 86 78 d3 3d
       -0.94176096 -0.03522734 -0.0075880904 0.103257224
000230 86 7d 84 bb ae 38 33 3d c1 15 32 bf ba f5 70 3c
       -0.004043284 0.043755226 -0.69564444 0.014707023
000240 c3 7b 17 3d ed 9a bd 3d 4c 51 7c 3d 7a 8a 04 3c
       0.036983263 0.092580654 0.06160097 0.008089656
000250 53 32 3f be 41 fb 7b 3d 27 fb 1e 3b 3b a0 07 bf
       -0.18671541 0.06151891 0.0024258585 -0.5297887
000260 88 6f 5d bc ee 02 ed bc bb 48 c3 3e f5 30 09 bd
       -0.013515361 -0.028932061 0.38141426 -0.033493955
000270 4d 91 4a bd db 16 ae bd 5f d6 a7 bc 9e 63 82 3d
       -0.049454976 -0.08500453 -0.020487962 0.06366657
000280 e9 7d 80 bd 03 43 9c bc 25 25 06 bd 04 36 84 3d
       -0.062740155 -0.019074922 -0.032750268 0.06455615
000290 a8 92 70 3d db 82 1e bd 29 5d 45 be 0e 1a 0e 3d
       0.058733612 -0.038699012 -0.19273819 0.034692816
0002a0 51 32 aa 39 90 3c 09 3e 84 c2 00 bd 34 ca 77 bd
       0.00032462415 0.13402009 -0.031435505 -0.06049557
0002b0 35 fa 5f be 95 7e 52 3d 40 e1 29 bd 58 b0 68 be
       -0.2187279 0.05139025 -0.04147458 -0.2272352
0002c0 6d 22 01 bd 22 23 53 bd d2 47 26 bf 9b 90 45 bc
       -0.03152697 -0.051547177 -0.6495334 -0.012058402
0002d0 90 fb 33 3d 0b 76 ca bd df f1 23 3d 9f cf 8a 3d
       0.04394108 -0.09885796 0.040025588 0.06777882
0002e0 88 41 a8 be fb 3e 1b 3d bb 04 43 3d 7d fa a7 3d
       -0.32862496 0.03790186 0.047611933 0.08202074
0002f0 6a 9e b7 ba a2 0b 45 bd 6d 74 95 3e 32 66 6c bd
       -0.0014009003 -0.048106797 0.29190388 -0.05771465
000300 ab 78 81 3b 41 ee cf 3e d2 e6 8f 3d 75 90 d9 3c
       0.0039511523 0.4061146 0.07026447 0.02655814
000310 d2 97 2a bf 5b ba c7 3b 98 24 5c 3d f7 10 38 be
       -0.6663791 0.0060952133 0.053745836 -0.17975222
000320 2f 0a 22 bb ba 98 64 bd 3f a3 de be 63 a6 b1 3c
       -0.0024725308 -0.055809714 -0.43483922 0.021685785
000330 d9 21 3e bd ea 8c d7 3e e0 f7 66 bd 40 c8 70 bd
       -0.046419 0.42099696 -0.056388736 -0.058784723
000340 f7 f0 98 3e 6c bb cb bc 8a be f8 3c e6 8f 85 3e
       0.29871342 -0.024869643 0.030364294 0.26086348
000350 30 17 5e 3d 1d 12 2d bd 65 ee 1f bd 64 b0 28 bc
       0.054221332 -0.042253602 -0.03904571 -0.010295961
000360 06 a2 2c 3d ff af 37 3d 30 80 2e bc ff 04 af 3c
       0.042146705 0.044845577 -0.0106506795 0.021364687
000370 f0 96 2a 3f 92 4b 26 bc 2d 5d 09 bd 99 08 f5 3e
       0.6663656 -0.010149853 -0.033536125 0.47858122
000380 04 79 a3 3c 6a b6 0a 3d 39 2f 83 bd 93 f1 6f 3d
       0.019955166 0.03386537 -0.064054914 0.058579993
000390 21 f0 08 bb e6 82 cb 3e a1 60 51 bd e9 cd 38 3d
       -0.002089508 0.39748305 -0.051117543 0.045118246
0003a0 6a 07 23 3e f5 e4 40 bd 81 ac 88 bd fe 20 99 be
       0.15920797 -0.04709335 -0.066735275 -0.29907984
0003b0 24 32 57 bd 58 99 51 bc 50 7f ab 3d 9f 81 d4 bc
       -0.052538052 -0.012792908 0.08373892 -0.025940714
0003c0 fd f9 2d bd 91 f9 2d 3d c6 6d 20 3c 2d 53 31 bc
       -0.042474736 0.042474333 0.009791797 -0.010823053
0003d0 c2 3f 0f bf 66 65 81 3b 9e a5 23 bc d8 21 a7 be
       -0.5595666 0.003948855 -0.009988217 -0.32643008
0003e0 b2 53 09 3d 8c d0 52 bd 44 d6 59 bf c3 ee 57 3c
       0.033527084 -0.051468417 -0.8509257 0.013179484
0003f0 41 7e 90 3b 0f ea 35 be 0d cd 9b bc cb 9d 8e 3d
       0.004409582 -0.17765068 -0.019018674 0.0696369

conv2.bias f4 [128]
000000 d8 78 c8 bb a9 33 3d 3d 4a 68 f1 3a ae 21 47 be
       -0.0061179213 0.046191845 0.0018417921 -0.19446442
000010 c1 1f 6f bc 24 68 7e bd 43 3e 04 3d 74 48 12 bd
       -0.014594973 -0.062111035 0.03228594 -0.035713628
000020 82 77 63 3c d8 c1 c2 3d 4b 6c 0a be 4c 7e 82 bd
       0.013883473 0.09509629 -0.13517873 -0.063717455
000030 05 9f 44 bd 65 33 6d 3c 24 3e a7 3c 18 75 0c 3d
       -0.048003215 0.014477585 0.020415373 0.034291357
000040 a7 89 61 3b 74 49 02 be 66 a7 b2 bd 4c 31 2e be
       0.0034414323 -0.12723333 -0.08723335 -0.17010993
000050 c3 09 95 3b ef ef b7 bd da 2b 2d bd 03 8e c5 3d
       0.004548283 -0.089813106 -0.04227815 0.09646227
000060 13 7f e9 bd b5 10 ab 3b 94 75 02 be 5c 5d 71 bd
       -0.114011906 0.0052204975 -0.12740165 -0.058926925
000070 cd 95 1e bd bd e3 67 bd c2 3e 3d be 47 a0 eb 3c
       -0.03871708 -0.056613673 -0.18480971 0.02876295
000080 6a 09 94 bd 82 1e 82 bd fa 03 9b 3d da fd 99 bd
       -0.07228358 -0.06353475 0.07569118 -0.075191215
000090 d3 be 93 3d df 9d 2d 3c 66 b4 5a bd 88 d8 a4 3c
       0.07214131 0.010596721 -0.053394698 0.020122781
0000a0 11 1e 25 3c 21 40 0c 3d 7f 99 00 3e e1 67 89 3d
       0.010077969 0.034240846 0.12558554 0.067092665
0000b0 05 1e 98 bd ac 4a 96 3d 20 ff 42 bb 61 c0 6d bd
       -0.07427601 0.07338461 -0.0029754117 -0.058044795
0000c0 e2 1c 10 bd ce 41 61 bc 98 70 0a be ed ad 42 3c
       -0.035183795 -0.013748599 -0.13519514 0.011882287
0000d0 59 b0 84 bd aa c2 be 3c 2e c2 60 bc 91 c1 84 bd
       -0.06478948 0.023286182 -0.013718171 -0.06482232
0000e0 04 14 75 bd 01 eb a7 3d 8f 4d 18 3d b3 02 84 3d
       -0.05983354 0.0819912 0.03718334 0.06445827
0000f0 19 35 73 bd ad d1 93 bd 1c e2 28 3d e0 38 e3 3d
       -0.05937681 -0.07217727 0.04123126 0.110948324
000100 29 ff f3 3d f5 8b 97 3c f8 6e 4c bd cf b8 1a be
       0.11913902 0.018499354 -0.049910516 -0.15109561
000110 04 af cf bb fd 42 04 3e 5b 05 34 3c d1 3d f8 bd
       -0.006338002 0.12916179 0.010987605 -0.121211655
000120 c0 8a dc 3c 5a 3f 8e 3c a5 1a 2d 3e cc d2 51 3d
       0.02692163 0.017364193 0.16904695 0.051226422
000130 d5 22 b5 bd a5 46 13 bd df 83 f9 bc 32 ad be 3c
       -0.08844534 -0.035956044 -0.030458389 0.023275945
000140 87 37 68 bd 53 52 bf bc 99 90 13 3d 39 cd 92 3c
       -0.05669358 -0.023354685 0.03602657 0.017920123
000150 3d b0 8d ba cf 1e e9 3c a0 6a ac bd b7 11 f6 bc
       -0.0010809969 0.028457073 -0.084187746 -0.030037744
000160 b0 42 18 bd 36 1c ff bd 1e 13 94 bd 2c d9 33 bd
       -0.037172973 -0.12456553 -0.07230209 -0.043908283
000170 44 b1 53 3d dd 1d 07 be 50 51 92 bd e0 0d cd 3c
       0.051682726 -0.13194986 -0.071444154 0.02503103
000180 18 26 b5 3d 7c fd 9e bc 09 2c 02 bd 6d 24 83 3d
       0.088451564 -0.01940798 -0.031780276 0.06403432
000190 e3 d5 1c be 93 07 81 3b 4d a7 d4 3d 24 0f 0a 3a
       -0.15315966 0.0039376705 0.103834726 0.00052665384
0001a0 55 42 07 be 97 c1 59 bd 10 ad 60 3d af 6a 14 bd
       -0.13208897 -0.053163137 0.054852545 -0.036234554
0001b0 7d a3 e4 bc bd 3e 0c 3e 16 4b 31 3e 8d d9 f0 3c
       -0.027909989 0.13695808 0.173138 0.029400611
0001c0 76 72 15 be d1 72 20 bd e2 a7 42 bc cf fe 53 3d
       -0.14594445 -0.039171997 -0.011880847 0.051756676
0001d0 a6 72 6c bb 85 57 bd 3d 23 c7 fc 3c 77 3c 84 bc
       -0.0036079078 0.09245209 0.030856675 -0.016142113
0001e0 d2 37 91 3d 25 6e de 3c 4a 6f 62 3c f1 99 76 3d
       0.07090725 0.02715213 0.013820479 0.060205404
0001f0 44 7b 12 3d a5 ec f1 3d 8d 7f e1 bd 9c 05 c2 bd
       0.035762087 0.118127145 -0.110106565 -0.09473726

batchnorm2.weight f4 [128]
000000 c5 0b 7e 3f 28 03 b9 3f 48 38 ad 3f d9 9b 6d 3f
       0.9923671 1.4454088 1.3532801 0.9281593
000010 53 90 74 3f 65 41 98 3f b8 92 7f 3f b4 4d a0 3f
       0.9553272 1.1894957 0.9983325 1.2523713
000020 63 61 a0 3f 9b 67 9f 3f 8f 2c 97 3f 25 66 75 3f
       1.252972 1.2453493 1.1810473 0.95858985
000030 0c 14 3b 3f 5b 1e ac 3f 29 33 8d 3f 6c 3b 7c 3f
       0.73077464 1.3446764 1.1031238 0.9852817
000040 2d b2 ac 3f 40 09 56 3f 1b e7 c7 3f d7 b8 a7 3f
       1.3491875 0.83607864 1.5617403 1.3103284
000050 ec 06 7e 3f de 52 a9 3f 18 21 9f 3f 15 67 91 3f
       0.9922931 1.3228414 1.2431974 1.1359583
000060 ce d1 a1 3f 6b 6d 93 3f e8 5e c2 3f 40 7f 43 3f
       1.2642152 1.1517767 1.5185213 0.76366043
000070 cd f7 8a 3f 2c b1 58 3f 21 3b a1 3f 5d 7a a6 3f
       1.0856873 0.8464534 1.259617 1.3006092
000080 96 9b 3d 3f 2d 41 62 3f 2a 16 a4 3f cf 1c 80 3f
       0.7406553 0.883807 1.2819264 1.0008792
000090 01 b6 84 3f 2b a3 99 3f 23 e1 88 3f 94 3c 6c 3f
       1.0368043 1.200292 1.0693706 0.92279935
0000a0 4b 09 9d 3f a5 f5 83 3f 2f 93 76 3f 8b 9d 7a 3f
       1.2268461 1.030934 0.96318334 0.9789664
0000b0 c8 76 97 3f d1 ad 94 3f 3c 3c 95 3f a6 25 b1 3f
       1.1833124 1.1615545 1.1659007 1.3839614
0000c0 00 e3 81 3f 75 e7 7a 3f 0f de 59 3f 1e fe 49 3f
       1.01474 0.98009425 0.8510446 0.7890338
0000d0 58 c7 61 3f 67 25 83 3f 3d 55 76 3f f3 12 5b 3f
       0.881948 1.0245789 0.96223813 0.8557579
0000e0 b0 d9 5f 3f b8 de 89 3f f2 27 9b 3f c4 1e 56 3f
       0.8744154 1.0771093 1.2121565 0.83640695
0000f0 47 c0 8d 3f 43 c5 86 3f ef 4c 2e 3f e7 ec b6 3f
       1.1074303 1.052895 0.6808614 1.4291047
000100 77 5d 80 3f 8f 64 50 3f 9f 17 86 3f e7 31 6c 3f
       1.0028523 0.8140344 1.0475959 0.92263645
000110 af aa 95 3f a2 80 90 3f ac 3d 93 3f 02 0a a0 3f
       1.1692713 1.1289256 1.1503196 1.2503054
000120 d4 c7 68 3f a4 34 8c 3f 23 10 98 3f 11 9a 98 3f
       0.90929914 1.0953565 1.1879925 1.1922017
000130 13 8f 4d 3f 21 52 84 3f 56 c2 93 3f 3a 04 a4 3f
       0.8029644 1.0337564 1.1543682 1.281379
000140 0f 3b 4d 3f fc 72 86 3f a1 f3 70 3f da 2c a7 3f
       0.8016824 1.050384 0.9412175 1.3060563
000150 d4 40 82 3f 2e 4d 4c 3f b1 77 85 3f 97 eb 44 3f
       1.0176034 0.79805267 1.0427152 0.7692198
000160 44 25 61 3f 4e 49 9d 3f 77 0b 87 3f c0 13 93 3f
       0.8794749 1.2287996 1.0550374 1.1490402
000170 e3 b0 89 3f f2 a5 82 3f 46 ad a9 3f 39 31 68 3f
       1.0757107 1.0206892 1.3256004 0.9070011
000180 34 11 9a 3f 72 6d 55 3f ab e8 49 3f 16 84 95 3f
       1.20365 0.83370125 0.7887065 1.1680934
000190 6e d8 8f 3f 8f 36 ac 3f 20 84 77 3f 25 7b 6a 3f
       1.1237924 1.345415 0.9668598 0.91594154
0001a0 08 37 8e 3f 78 da 85 3f 9b 38 88 3f de 83 83 3f
       1.1110544 1.0457296 1.0642275 1.0274618
0001b0 80 d8 73 3f 75 b9 92 3f 67 5c 84 3f 28 9c 9f 3f
       0.9525223 1.1462847 1.0340699 1.246953
0001c0 bf 0c 88 3f c7 b8 85 3f 56 8f 87 3f 00 16 9c 3f
       1.062889 1.0447015 1.0590618 1.2194214
0001d0 19 3d 93 3f e1 5d 96 3f a2 19 81 3f 7c 59 92 3f
       1.150302 1.17474 1.0085948 1.1433558
0001e0 47 9f a3 3f 87 4f 5c 3f 4b 2f 6d 3f 87 a2 85 3f
       1.2782983 0.8605885 0.9265029 1.0440224
0001f0 5f 4f 52 3f e1 97 7a 3f 4b 4a 65 3f 4d 5e 56 3f
       0.8215236 0.97888 0.8956649 0.8373764

batchnorm2.bias f4 [128]
000000 9c ca 8a be d4 fc 1b bf 2f 73 4e bf 5f ca a3 be
       -0.27107704 -0.6093266 -0.80644506 -0.31990334
000010 31 2b 80 be 99 c1 f2 be 36 ff 57 be 49 9e d0 be
       -0.25032952 -0.47413328 -0.21093449 -0.40745762
000020 74 c0 26 bf 9c e2 f1 be 7b 99 b7 be 66 b6 30 be
       -0.6513741 -0.47243202 -0.35859284 -0.1725708
000030 1c cb 89 bd da ef ab be be 82 88 be b2 c0 34 be
       -0.06728193 -0.3358143 -0.26662248 -0.17651632
000040 b3 20 a7 be ae 8a 93 be 10 25 25 bf 58 fc 61 be
       -0.32642135 -0.28816742 -0.6450968 -0.22068918
000050 55 2f d5 be 44 f3 59 bf 68 52 cb be 1a 91 82 be
       -0.41637674 -0.8513682 -0.39711308 -0.2550133
000060 e0 0e f2 be 43 61 d9 be 4a 14 4b bf 40 75 a2 be
       -0.47276974 -0.42457017 -0.79327834 -0.3173008
000070 a9 c8 0a bf 86 7b 13 be 87 29 f2 be e7 21 68 be
       -0.54212433 -0.14402589 -0.47297308 -0.22669183
000080 42 03 18 bd 17 b6 30 be 84 0e 0a bf 79 2b ff be
       -0.037112482 -0.17256962 -0.539284 -0.49837855
000090 21 9e c6 be c2 ba a5 be 62 d4 f2 be e4 ae 20 be
       -0.38792518 -0.32369047 -0.4742766 -0.15691715
0000a0 7e f1 cf be 56 65 79 be db b1 0b be bb be c6 be
       -0.4061393 -0.24355063 -0.13642065 -0.3881739
0000b0 6d 55 85 be 1b a3 f2 be b9 13 b9 be cc ee b9 be
       -0.26041737 -0.47390065 -0.3614786 -0.36315
0000c0 cd 4c cd bd dc 44 39 be f1 d5 c3 be 68 a1 93 be
       -0.10024414 -0.18092674 -0.38249162 -0.2883408
0000d0 a7 8f 87 be 17 13 8d be 4a 02 b6 be 66 d2 f2 be
       -0.26476786 -0.27553627 -0.3554862 -0.47426146
0000e0 24 b1 a8 be 13 7b a0 be 76 19 15 bf 5e e1 63 be
       -0.32947648 -0.31343898 -0.58241975 -0.2225394
0000f0 14 e5 3f be 6e 13 4c be a1 06 16 bd 61 92 2b bf
       -0.1873973 -0.19929287 -0.036627416 -0.6702023
000100 e1 73 e6 bd 01 4f 91 be 2f 74 a5 bd a9 c3 67 be
       -0.11252571 -0.28380588 -0.08078801 -0.22633232
000110 5d ad 8e be e6 20 d4 be 04 57 8a be 10 b9 50 bf
       -0.2786664 -0.4143135 -0.27019513 -0.8153238
000120 dc e2 7c be d8 65 37 bf af 52 18 bf 98 d7 1b be
       -0.24695915 -0.71639776 -0.59501165 -0.15218961
000130 73 6b 87 be 54 69 a2 be 1b 52 61 be 76 ea 0e bf
       -0.26449165 -0.31720984 -0.22003977 -0.5582651
000140 0c 94 a6 be 8a b2 cc be 35 32 66 be 6f 0b 09 bf
       -0.32534826 -0.39979964 -0.2248009 -0.5353307
000150 35 30 83 be 9e 97 96 be 2c e6 d4 be ab db 5b bd
       -0.25622717 -0.2941255 -0.41581857 -0.05367629
000160 2d 4f 9d be f9 5a 8d be 64 f5 ba be 29 0a e3 bd
       -0.3072447 -0.2760847 -0.36515343 -0.11085922
000170 46 0a 66 be cb 32 ef bd 31 50 1f bf e9 e4 93 be
       -0.22464857 -0.1167961 -0.6223174 -0.28885582
000180 74 a8 f1 be d9 89 ee bd a5 6e 16 be 68 e7 0f be
       -0.47198832 -0.11647386 -0.14690645 -0.14053118
000190 ee 17 b6 be d1 49 bf be 1c ff a4 be b6 59 ab be
       -0.35565132 -0.37361005 -0.32225883 -0.33466882
0001a0 1c 5f dc be 05 55 ea be df ca 7a be dd 8c 38 bf
       -0.43041313 -0.4576799 -0.24491452 -0.7208994
0001b0 65 3b 2a be 2d 6f 97 be 41 38 e7 be aa 4d 03 bf
       -0.1662422 -0.29577008 -0.45160106 -0.5129038
0001c0 a4 13 6d be 92 cd 5a be c5 7a 37 be eb 3b a2 be
       -0.23152024 -0.21367481 -0.17917927 -0.3168634
0001d0 d3 0e bd be f6 45 9c be 93 21 13 be 78 be be be
       -0.36925372 -0.30522126 -0.14368276 -0.3725469
0001e0 78 4e 08 bf 7c a2 8f be c0 a2 b5 be 93 b4 16 bf
       -0.53244734 -0.28053653 -0.3547573 -0.58869284
0001f0 17 91 4b bd b5 86 02 bf ef 9f 0d bd 13 e3 96 be
       -0.049698915 -0.50986797 -0.034576353 -0.2947012

batchnorm2.running_mean f4 [128]
000000 2d 08 58 c0 5a 55 d3 3f 10 f3 5d 40 b9 0a 63 3f
       -3.375499 1.6510422 3.4679604 0.88688236
000010 68 eb ae bf 2e 83 ec be d0 82 a4 bf bd 76 83 bf
       -1.366559 -0.46193832 -1.2852421 -1.0270611
000020 79 1a 8d 40 1c 25 0f 40 72 a0 a8 40 9f fc af 3e
       4.4094815 2.23664 5.2695856 0.34372422
000030 27 f6 cf bf e7 e0 2e bf f5 e3 c7 3f 46 db 80 be
       -1.6246995 -0.68311924 1.5616442 -0.25167292
000040 b7 1e 32 bf 35 55 c4 bf 2b fe f7 3f dd 26 bc 3d
       -0.6957812 -1.5338503 1.9374441 0.091871
000050 25 e3 60 40 2a 33 63 40 53 6d 4d bf 69 18 a2 bf
       3.5138638 3.5499978 -0.8024494 -1.2663699
000060 41 dd fc bf 68 f7 1a 3f e2 d3 d5 40 6c 16 55 bf
       -1.9755021 0.6053376 6.6821146 -0.8323734
000070 5c 82 a5 be ae 38 ae 3f a6 9f 35 bb de 2f 13 be
       -0.3232602 1.3611047 -0.0027713566 -0.14373729
000080 b3 6c 93 bf 0c 37 25 bf c9 6a 4b bd 94 42 d9 bf
       -1.1517547 -0.6453712 -0.049662385 -1.6973443
000090 c2 ec 1d c0 9a 6d ef 3d 45 fb 36 bf 57 74 33 bd
       -2.4675756 0.11690827 -0.71477157 -0.043812122
0000a0 10 a8 00 bf 1c 73 1d c0 9e c4 fe bf c4 51 d6 3f
       -0.50256443 -2.4601507 -1.9903753 1.6743703
0000b0 c6 d5 bc bf 26 70 83 c0 b7 0c d8 be cf 5a 01 40
       -1.4752738 -4.10744 -0.421972 2.0211675
0000c0 bf 5e a5 bf b9 99 3b c0 bc 93 60 c0 b8 d0 69 bf
       -1.2919539 -2.9312575 -3.509017 -0.91334105
0000d0 fa 89 f2 bf d8 75 4c c0 3d 06 24 3f 0d 72 d1 be
       -1.8948357 -3.1946926 0.6407202 -0.40907326
0000e0 56 73 11 c0 13 d0 91 bf 11 ee 9b 3f 57 5e ef bf
       -2.2726645 -1.1391624 1.2182027 -1.8700665
0000f0 d8 0f 7b c0 75 5b 1a 3f 00 9e 0f c0 a1 cc 8a 40
       -3.922842 0.602958 -2.2440186 4.337479
000100 be fe 10 bf 68 9f 81 bf 8d 1b 37 c0 d6 c3 4d c0
       -0.56638706 -1.0126772 -2.8610566 -3.2150779
000110 2c 15 ad 3e a9 71 de 3f 77 97 3f 40 8c 80 45 40
       0.33805215 1.7378436 2.9936197 3.0859709
000120 cb b9 8b 3f 83 e9 29 40 f3 70 54 3f 35 71 ef 3e
       1.0916075 2.6548774 0.82984847 0.46766058
000130 ac 6d 59 c0 b8 fa 89 be b8 fe c5 be 1c bd 67 bf
       -3.3973188 -0.26949096 -0.38670897 -0.90522933
000140 73 eb 2a c0 ea 39 37 40 a0 75 df 3e 89 3d 11 40
       -2.6706207 2.8629098 0.43644428 2.2693808
000150 8d 6f 14 3f fd 17 3c c0 06 8a c9 bf a3 0f 1f c0
       0.57982713 -2.9389641 -1.5745246 -2.4853294
000160 9d dc d2 bf a1 e3 3b bf 88 fe 33 c0 f4 12 60 bf
       -1.6473576 -0.7339421 -2.8124104 -0.8752892
000170 98 c7 10 c0 d3 43 e2 3e e0 7b a9 40 9b b6 fc 3a
       -2.2621822 0.4419237 5.2963715 0.0019280495
000180 61 19 22 bf 53 87 04 c0 e6 76 4f c0 9f e2 fc bf
       -0.63319975 -2.0707595 -3.241632 -1.9756659
000190 36 25 90 3e ca 3d 84 bf 0a 1d 51 c0 de 5e 3f 3e
       0.2815339 -1.0331357 -3.2673974 0.18688533
0001a0 95 1f 60 3e 4b c8 1b 40 9b 2c d3 bf 39 fb 6e 40
       0.21887048 2.4341 -1.6497988 3.7340834
0001b0 a3 12 96 bf 67 4d 26 bf 7b 2b 0a 40 b6 b5 3d 40
       -1.1724437 -0.64961857 2.1589038 2.9642158
0001c0 98 cd 4a c0 e9 c5 eb be 1c 8b cd bf fa e9 2e be
       -3.1687984 -0.4604943 -1.6058078 -0.17081442
0001d0 7b 97 a2 40 d2 8b 12 c0 93 4d 3e bf 63 d1 fd 3f
       5.0809913 -2.289784 -0.7433712 1.9829525
0001e0 5e 04 32 be b0 43 5a c0 e3 dc 38 c0 c9 9e c3 be
       -0.17384478 -3.4103813 -2.8884819 -0.3820708
0001f0 ad 75 b0 c0 9c 96 d3 bf 91 d4 5d c0 4a 6f 8f c0
       -5.5143647 -1.6530337 -3.466099 -4.482335

batchnorm2.running_var f4 [128]
000000 74 bf 9b 40 45 45 0c 41 d8 d8 a3 40 52 9a 6a 40
       4.8671207 8.7669115 5.12022 3.665669
000010 f8 79 32 40 55 ca b3 40 71 c5 ed 40 7a 31 01 41
       2.7886944 5.6184487 7.4303517 8.074579
000020 9e f4 81 40 e9 ec bb 40 b8 07 8c 40 a6 db 8e 40
       4.0611105 5.8726697 4.375942 4.4643126
000030 18 1e 85 40 30 64 dc 40 16 2a 01 41 6f 62 3d 40
       4.1599236 6.88723 8.072775 2.959133
000040 90 00 d3 40 bc 3c 2f 40 4a 1d d3 40 cc 91 c4 40
       6.5938187 2.738082 6.5973253 6.1427975
000050 f5 22 a9 40 85 05 96 40 ab 7c bc 40 a0 be 88 40
       5.285517 4.688174 5.8902183 4.2732697
000060 65 36 85 40 f4 f7 c5 40 66 b9 cc 40 c1 4b 8b 40
       4.16289 6.1865177 6.3976316 4.3529973
000070 39 d0 83 40 e2 96 2e 41 b0 8d fa 40 22 12 c3 40
       4.119168 10.911837 7.829796 6.0959635
000080 f6 d2 a6 40 ef b0 b9 40 73 07 e9 40 b2 fc 3d 40
       5.213252 5.8028483 7.2821593 2.9685483
000090 f1 b3 af 40 49 0e a0 40 a6 90 7a 40 70 44 9d 40
       5.4907155 5.001744 3.9150786 4.914604
0000a0 4b dc bb 40 88 1c 98 40 f3 14 38 40 1d 58 b8 40
       5.870641 4.753483 2.8762786 5.760756
0000b0 26 9c 87 40 52 b5 0d 41 a1 da 81 40 83 03 96 40
       4.237811 8.856768 4.057938 4.6879287
0000c0 9b 1a da 40 b3 c0 d4 40 c4 65 9d 40 d2 03 de 40
       6.8157477 6.648523 4.9186726 6.9379663
0000d0 c0 03 a1 40 4d e9 9f 40 a9 a4 59 40 ac 34 67 40
       5.031708 4.997229 3.400675 3.6125898
0000e0 1a 57 73 40 f5 35 dc 40 72 aa 73 40 39 9c af 40
       3.8021913 6.8815866 3.8072782 5.48782
0000f0 10 31 d8 40 9c 79 58 40 a0 ea 94 40 04 f3 bb 40
       6.755989 3.3824224 4.6536407 5.873415
000100 ba b7 79 40 8e 59 7f 40 8b 50 57 40 97 a4 61 40
       3.9018388 3.989841 3.364291 3.5256708
000110 97 1c a5 40 2c 75 89 40 15 ae ae 40 2e 6f a0 40
       5.15974 4.295553 5.4587502 5.0135717
000120 0b a6 5d 40 d2 3a 47 40 a0 5f 4f 40 4c 85 49 41
       3.4632595 3.112965 3.2402115 12.595043
000130 9c 94 9e 40 82 48 c5 40 f6 f1 96 40 93 ca 56 40
       4.955641 6.165101 4.7170362 3.3561141
000140 88 b9 97 40 82 f0 84 40 c3 b8 86 40 ee 0e 01 41
       4.741398 4.154359 4.210054 8.066145
000150 d7 22 c4 40 6d 40 47 40 33 6a a7 40 2c 07 dd 40
       6.129253 3.1133072 5.231714 6.9071255
000160 a3 fe 84 40 1c 7c 10 41 88 88 04 41 ed 7c 0f 41
       4.1560836 9.0303 8.283333 8.967999
000170 59 dc 86 40 5d 0c 75 40 56 4d eb 40 64 6c 6a 40
       4.214398 3.8288796 7.3531904 3.6628656
000180 ba 88 c9 40 e5 54 b8 40 7a 4a 87 40 0a 4f dc 40
       6.2979403 5.760363 4.2278414 6.8846483
000190 e3 38 89 40 98 ec 10 41 f3 15 4a 40 2e c4 42 40
       4.288194 9.057762 3.1575897 3.0432239
0001a0 0c 8f 31 40 f5 20 ee 40 ad 07 a6 40 18 8c 6e 40
       2.774356 7.441523 5.188437 3.7273006
0001b0 f2 42 c0 40 b5 2b 6b 40 fc 9d 89 40 cb 34 b9 40
       6.008172 3.6745427 4.300535 5.7876945
0001c0 6f f6 28 41 d2 7c 8e 40 e1 52 a5 40 8e e7 a1 40
       10.560164 4.452737 5.166367 5.059516
0001d0 db 1f 78 40 0a 21 95 40 29 ae c8 40 74 77 9d 40
       3.8769443 4.660283 6.27126 4.9208317
0001e0 a4 55 b3 40 36 04 95 40 bc 3a cf 40 9e 47 bf 40
       5.604204 4.656764 6.4759197 5.9774923
0001f0 50 43 96 40 e9 18 87 40 97 c8 dc 40 52 7f a8 40
       4.695717 4.221791 6.899486 5.265542

fc1.weight f4 [256, 128]
000000 fe ba 00 3f eb 0c e8 be 84 4e 14 bf 90 41 c7 3e
       0.5028533 -0.45322356 -0.57932305 0.38917208
000010 c0 4f 55 3e 59 18 0b 3f 37 ff 09 bf a5 06 4a 3f
       0.20831203 0.54334027 -0.5390505 0.7891639
000020 4d cb fa ba f5 e3 ce be c2 f3 b6 bd 59 ee e3 3e
       -0.0019134075 -0.40408292 -0.08933212 0.44517782
000030 84 32 c1 be 0e 75 43 c0 f0 05 1c 3f 91 99 1f 3e
       -0.37733853 -3.0540195 0.6094656 0.15585925
000040 4a 5d 2e bf 3a a9 f8 bd d4 0c 52 bf ac 3e d4 be
       -0.681111 -0.121416524 -0.82050824 -0.41454065
000050 d5 65 0d bc 58 62 b1 3e 7c 1e 11 c0 c6 d3 95 3e
       -0.008630236 0.34645343 -2.2674856 0.29263133
000060 ea 4e 82 3e d3 f0 35 3e 8f 2a de bd 73 5c 3f 3e
       0.25450832 0.17767648 -0.10847961 0.1868761
000070 c5 f0 9b 3d 08 2e 12 3d 1e 71 a6 3d ee 64 52 3f
       0.076142825 0.03568843 0.08127044 0.82185256
000080 03 61 af 3d 36 99 f8 3d 6b 49 f4 be 31 73 e2 bd
       0.085634254 0.12138598 -0.47712263 -0.11057127
000090 93 b1 26 bf ae 1d 1e bf e9 cb 02 3e 81 e6 0d be
       -0.65114707 -0.6176404 0.12773098 -0.13857462
0000a0 6d a9 20 bf 90 5f 8c be f4 22 d2 3e 72 06 6d 3e
       -0.62758523 -0.27416658 0.41042292 0.2314699
0000b0 24 50 99 3d 2e 79 de 3e 6a 18 5e bf d9 3b 6c be
       0.07485989 0.43451828 -0.86756 -0.23069705
0000c0 a8 6a a3 bd de 5b 0f be 91 0a 84 bf 2b c2 01 be
       -0.079793274 -0.13999888 -1.0315725 -0.12671725
0000d0 f0 22 96 3e 96 42 b9 bf e8 cc 53 3e fc f3 16 3f
       0.2932353 -1.4473445 0.20683634 0.5896604
0000e0 fc 96 b3 3d 41 13 89 be 14 b5 9e be b9 f9 ae 3d
       0.08769032 -0.26772502 -0.30997527 0.085437246
0000f0 bd 3a 88 3e 22 b8 f4 3d 1c 00 13 be 8a 80 eb 3d
       0.26607314 0.11949183 -0.1435551 0.11499126
000100 a2 a8 43 bf bf d6 3d 3e 2c bf 5f bf 5d 4a a7 3c
       -0.7642919 0.1853895 -0.8740108 0.020421201
000110 93 4c 27 3f 0d c9 bb 3d 3d ce 36 be 8e 51 26 3e
       0.6535122 0.09169207 -0.17852111 0.16242048
000120 3a ec f6 3e f9 ce 68 3d 50 b8 1b bf a8 53 60 be
       0.48227102 0.05683801 -0.60828114 -0.21906912
000130 7c 7f ab bf ee db de 3e 8c 5a ae be 97 f5 bd bd
       -1.339828 0.43527168 -0.34053457 -0.09275358
000140 ca d5 3d 3f 71 bf a6 3e 2d 33 86 bd 44 b3 14 c0
       0.7415434 0.32567933 -0.0655273 -2.3234415
000150 73 c2 7d be 62 55 9c be 14 bd 6f 3f 37 bb c2 3a
       -0.24781208 -0.30533892 0.93647885 0.001485682
000160 87 13 76 bd a2 66 51 bf 48 c7 91 bf 43 6e eb bf
       -0.060077216 -0.8179723 -1.1388941 -1.8393024
000170 b6 08 88 be 41 b7 9a be f8 cf 12 bf f0 20 c3 3d
       -0.26569146 -0.30217937 -0.57348585 0.09527767
000180 08 23 93 bd 7d b6 07 3f a1 a8 35 be 85 a2 66 bf
       -0.07184416 0.5301283 -0.17740108 -0.90091735
000190 e6 d2 9f 3e 7e fb fa 3e 38 26 6b be b1 ba d1 be
       0.3121559 0.49019998 -0.22963798 -0.40962747
0001a0 18 a8 73 bf 89 98 e7 be ec 6c 26 be 50 b9 a0 3e
       -0.95178366 -0.45233563 -0.16252488 0.31391382
0001b0 85 6a 02 bf a8 d3 48 bf a9 a1 49 be 02 e2 d9 3e
       -0.50943786 -0.7844796 -0.19690575 0.42555243
0001c0 c8 d5 33 3e ac 85 d8 3e 3b b0 70 be e9 4a 8d be
       0.1756202 0.42289484 -0.23504727 -0.27596214
0001d0 3c 0a 08 3e 4a b4 7b 3d 41 80 5c bf bf 4c c4 bd
       0.13285154 0.061451234 -0.861332 -0.09584951
0001e0 44 80 55 bf e2 84 93 bf 92 a3 67 bf c3 7e 29 3e
       -0.8339884 -1.1524928 -0.90483963 0.16552262
0001f0 1a 64 da be ba d6 f7 3d 6e 18 76 be 19 12 10 be
       -0.42654496 0.12101503 -0.24032757 -0.14069404
000200 a3 76 fa 3d 3d 8f 15 3e e0 5c 5c be 7a bf a5 3e
       0.122296594 0.14605422 -0.21519804 0.32372648
000210 08 8b 05 3c 84 6f a4 be 3c 8a 54 3e 3e e9 13 3f
       0.008150823 -0.3211633 0.20755857 0.57777774
000220 9a c5 e7 3e 17 12 ec be 3d 79 4f 3e 1b 5c ff 3e
       0.45267946 -0.4610755 0.20261092 0.49874958
000230 c6 6e ef 3e a6 ae 0f bd 99 e9 73 bf 1b e8 50 bf
       0.467642 -0.035078667 -0.95278317 -0.81604165
000240 fa d5 f0 bd 0a 79 60 be f2 ca b6 bd 28 b6 ca be
       -0.11759563 -0.21921173 -0.089254275 -0.395921
000250 c4 1e 84 3e 6a 95 81 3d 3e 1a 68 bf c8 d9 04 3e
       0.25804722 0.063273266 -0.9066504 0.12973702
000260 f1 d8 98 be 0b f1 13 bf 07 1a 53 bf 2c f8 cc bd
       -0.29853013 -0.5778968 -0.8246159 -0.100082725
000270 f4 df 72 bf 22 da b5 3d 7a c2 49 be d0 fe 3d bf
       -0.94872975 0.08879496 -0.19703093 -0.7421694
000280 52 b4 28 bf ab ad af 3e 88 3b 0b 3d 83 53 3e be
       -0.65900147 0.34312186 0.03399232 -0.18586545
000290 77 32 90 3e 23 d1 10 3e 12 71 e4 3e 56 9a c8 be
       0.28163502 0.1414228 0.44617516 -0.3918025
0002a0 bc c5 ce be 75 31 03 3f 73 98 93 3e 08 2d aa 3e
       -0.40385234 0.5124734 0.28827247 0.3323748
0002b0 69 7b 1f bf 2a c7 1e bf 5b 32 b7 3d c0 7d e0 be
       -0.62297684 -0.6202265 0.089451514 -0.4384594
0002c0 d6 db b0 be a7 a3 5e bf 67 d6 83 3e 08 88 12 c0
       -0.34542722 -0.86968464 0.25749514 -2.2895527
0002d0 fe cc ac bb ff a9 bf 3e 43 00 02 3e 0f 66 ca 3c
       -0.0052734604 0.37434384 0.12695412 0.024706868
0002e0 41 30 4c 3e f8 32 f0 3d f6 eb 16 3e fe 95 12 be
       0.19940282 0.117284715 0.1473845 -0.1431503
0002f0 57 87 f4 be 15 81 1b bd 30 7d 85 be f6 59 7c be
       -0.47759506 -0.0379649 -0.26072073 -0.24643692
000300 d9 a9 06 be 47 2f 9e 3d 25 b4 f7 3d c2 e4 61 bf
       -0.13150729 0.07723861 0.12094907 -0.8823968
000310 ee ad 03 3f 1d 2e 69 3d 2d b0 69 be 41 0a 5e 3e
       0.5143727 0.056928743 -0.22821112 0.21683599
000320 3a 32 8b 3e 4f 43 c6 3e 94 1a 3f 3d 79 95 8e be
       0.27186757 0.38723227 0.046656206 -0.27848414
000330 e5 27 a3 bd be 64 c1 3e b4 d9 da be 30 07 ae 3e
       -0.07966594 0.37772173 -0.4274422 0.3398986
000340 25 d4 b0 3e b3 e8 0d bf 8b 31 fc bd fd d1 a6 bf
       0.34536853 -0.55433196 -0.12314137 -1.3032833
000350 0a 00 10 bf 15 73 a0 3e 32 12 42 be de 7a 31 be
       -0.5625006 0.313378 -0.18952253 -0.17332026
000360 7c f3 1c bf 14 54 9e bf 6f be 22 3f 4a 07 8e bf
       -0.6130903 -1.2369409 0.6357183 -1.1095974
000370 8f 55 5b be 03 b9 e5 3d 4c 5d bf be 48 be 8c be
       -0.21419357 0.11216929 -0.37375867 -0.27488923
000380 2d 29 d7 bb b7 2a e3 3e ad 6c be 3c ff cd 70 3e
       -0.006566188 0.44368526 0.02324518 0.23516081
000390 bc 09 05 3f c1 df 82 be f3 bb 17 bf 74 bd 95 bf
       0.5196798 -0.25561336 -0.5927116 -1.1698442
0003a0 3d ea 73 bf c5 1f ca 3e 7e 2d 1b bf a1 a8 d3 bc
       -0.95279294 0.39477363 -0.6061629 -0.025837244
0003b0 70 ee a2 be bd 6d d5 be 1d 9a d5 3e 52 12 68 3e
       -0.31822538 -0.41685286 0.41719142 0.22663239
0003c0 40 7e c0 3e e7 36 bf be dc b1 da be 87 c5 c2 bc
       0.3759632 -0.37346575 -0.4271382 -0.023775829
0003d0 fc 4d 30 3f 05 9d 97 be 05 e8 02 3e 71 62 eb 3e
       0.68868995 -0.29611984 0.12783821 0.45973542
0003e0 40 3f 90 3e f4 f6 f2 3c 92 13 10 3e ed f0 f0 be
       0.28173256 0.029658772 0.14069965 -0.47058812
0003f0 63 6c 76 3d 3a 77 d7 be e0 d2 00 3f 0a 8e 49 3e
       0.06016196 -0.4208315 0.5032177 0.1968309
